trained_model/lstm_polymer_anomaly.pth (torch, 75550 bytes, 6 tensors)

lstm.weight_ih_l0 f4 [256, 4]
0.03300864 0.11589511 0.14198452 -0.07660948 -0.0044127563 0.15506132 0.17224559 0.08020934
-0.0046057445 0.10538816 0.007093445 0.07105901 -0.1599039 -0.010080501 -0.14392535 0.0016808325
0.14188607 0.022150187 -0.014235689 0.12399979 -0.0020799562 0.15733197 0.0055130566 0.034759857
0.055253208 0.09574757 -0.07197729 -0.0555961 -0.02674503 0.038398687 -0.028658438 0.015005087
0.044071984 -0.079958156 0.07103397 0.12687305 -0.056518443 -0.084872454 0.01641466 0.028388053
0.08842282 -0.08098906 -0.03969774 -0.1370026 -0.090189375 0.026864849 -0.015497258 0.10785828
0.1059989 -0.0016267311 0.09089128 0.122218885 -0.034734417 0.06727934 0.10577781 0.07237352
0.09366722 0.15549058 0.1336468 -0.10647173 0.07892505 -0.06130779 0.037437025 0.012835527
0.10262541 0.09499934 0.12822902 0.14029904 -0.010789997 0.07870853 0.05544669 0.054472752
0.044107746 0.044076547 0.16413036 -0.0807529 0.007152188 0.11010564 -0.11059135 0.15284944
0.07185829 -0.050288104 -0.006821132 -0.06987955 -0.13578367 -0.003351531 -0.0991229 0.09203263
-0.027067373 -0.040760107 -0.04502676 0.07987797 0.06780895 -0.019992696 0.14902471 -0.010417308
-0.1044852 -0.04175451 0.018826544 -0.11619299 0.12660715 -0.028795347 0.14096838 0.057142787
-0.028760903 0.037172515 0.0590385 -0.05092499 0.093413495 -0.052853215 -0.020027189 -0.023616498
0.03624196 0.007086559 -0.06728929 0.10587232 -0.03224241 0.044922143 0.07163163 0.120209746
0.0104749845 0.12685315 0.0015710113 0.05691464 0.13001017 0.037715334 0.049123727 0.07392351
-0.025380762 -0.09182888 0.12599623 0.00095214584 0.16054586 0.15431497 0.16281119 0.006212415
0.06776859 -0.08260643 0.14232801 -0.048724864 0.019066665 -0.011494658 0.08986538 0.043599043
-0.011394517 0.13490376 0.020818003 -0.07805185 0.0255693 -0.004633831 -0.0030106753 -0.104648985
-0.08101601 0.043775234 -0.0030881367 0.09196819 0.23672359 0.17185244 0.24980456 0.096940525
-0.077058904 0.05275888 -0.09550453 -0.057326388 0.112131156 0.009043098 0.090669535 -0.0011984243
0.17082825 0.045777034 0.10612146 0.10709197 0.060994383 0.12134697 -0.025770271 0.002394153
-0.00029692703 0.029561548 -0.009735139 0.12019312 -0.044132423 -0.06447639 -0.06274437 0.0289695
0.06467703 0.06533435 0.01870154 -0.035622858 -0.051729534 -0.012151915 0.15435767 0.10238952
0.1251174 0.09741825 0.01932942 0.04557265 0.10058908 0.012901175 -0.07868218 -0.010104801
-0.011697665 0.09262695 -0.036830753 -0.10487524 0.12185932 -0.034588277 0.15530406 -0.08310423
0.078909725 0.09651844 0.10154703 0.14477265 0.26588476 0.20006014 0.15253791 0.10722656
0.14996088 0.015057233 0.018105403 0.076104864 -0.06875943 -0.057210743 0.1285919 0.1030035
-0.033341397 -0.054971524 0.0075775613 0.0075202016 -0.10390911 0.12373346 -0.000599227 -0.062890984
0.08585935 -0.04609663 0.057951156 0.09462225 0.028207634 0.026692603 0.106923126 0.042382207
0.08702373 0.053434826 0.1304018 0.0677062 -0.078530945 0.11413469 -0.1505706 0.062345404
0.0011487545 0.09693375 0.048701677 -0.114725396 -0.0032579985 -0.080150865 -0.00087788614 0.04132718
00000000: 1134 073d 6a5a ed3d 6464 113e 6ee5 9cbd
00000010: e298 90bb 65c8 1e3e 2661 303e cb44 a43d
00000020: c9eb 96bb bfd5 d73d 2170 e83b 6387 913d
00000030: d9bd 23be b028 25bc 2b61 13be 614f dc3a
00000040: 954a 113e 4f74 b53c cf3c 69bc 9af3 fd3d
00000050: e04f 08bb a21b 213e dfa6 b43b 5a60 0e3d
00000060: 3051 623d 4d17 c43d d468 93bd bcb8 63bd
00000070: 6518 dbbc f147 1d3d 1ac5 eabc e5d7 753c
00000080: d384 343d 1ac1 a3bd 427a 913d 02eb 013e
00000090: e27f 67bd 9cd1 adbd 0978 863c 108e e83c
000000a0: 0617 b53d 98dd a5bd 199a 22bd 694a 0cbe
000000b0: 35b5 b8bd ac13 dc3c 36e8 7dbc cde4 dc3d
000000c0: f415 d93d 0a38 d5ba 3525 ba3d e54d fa3d
000000d0: ad45 0ebd c0c9 893d 09a2 d83d 9138 943d
000000e0: 99d4 bf3d ec38 1f3e b5da 083e da0d dabd
000000f0: 75a3 a13d e11d 7bbd 9157 193d 1a4c 523c
00000100: 452d d23d 048f c23d 784e 033e 8daa 0f3e
00000110: 87c8 30bc f031 a13d 121c 633d d21e 5f3d
00000120: 53aa 343d 9c89 343d ca11 283e c761 a5bd
00000130: e75c ea3b 117f e13d b87d e2bd 9084 1c3e
00000140: 702a 933d e6fa 4dbd cd83 dfbb 021d 8fbd
00000150: e00a 0bbe 5ca5 5bbb f200 cbbd 9b7b bc3d
00000160: 65bc ddbc 12f4 26bd fb6d 38bd 1097 a33d
00000170: 6bdf 8a3d b9c7 a3bc ef99 183e 5bad 2abc
00000180: 56fc d5bd c706 2bbd 203a 9a3c 97f6 edbd
00000190: 4ea5 013e 38e4 ebbc 045a 103e 8e0e 6a3d
000001a0: fc9b ebbc 3542 183d 5bd2 713d b996 50bd
000001b0: 934f bf3d 9d7c 58bd 0f10 a4bc 6377 c1bc
000001c0: 7372 143d 5e36 e83b f8ce 89bd 96d3 d83d
000001d0: 9e10 04bd 4800 383d 9bb3 923d 8730 f63d
000001e0: 459f 2b3c cbe5 013e 64ea cd3a 531f 693d
000001f0: 6321 053e 657b 1a3d f635 493d 3665 973d
00000200: 51eb cfbc c810 bcbd 2805 013e 6d99 793a
00000210: 2266 243e be04 1e3e fab7 263e 8491 cb3b
00000220: 42ca 8a3d 8f2d a9bd 6fbe 113e b993 47bd
00000230: b231 9c3c 1754 3cbc 570b b83d e994 323d
00000240: 11b0 3abc 3624 0a3e 848a aa3c a6d9 9fbd
00000250: b576 d13c 64d7 97bb c04e 45bb 3552 d6bd
00000260: b9eb a5bd a94d 333d 5662 4abb d259 bc3d
00000270: ab67 723e 16fa 2f3e c4cc 7f3e c188 c63d
00000280: 0fd1 9dbd b219 583d e197 c3bd 13cf 6abd
00000290: 05a5 e53d 8129 143c f3b0 b93d 7214 9dba
000002a0: 9aed 2e3e b380 3b3d 3556 d93d 0953 db3d
000002b0: 3fd5 793d c384 f83d 2d1c d3bc 39e7 1c3b
000002c0: dfac 9bb9 0f2b f23c 2280 1fbc cf27 f63d
000002d0: 33c4 34bd 330c 84bd 1f80 80bd 7251 ed3c
000002e0: 6475 843d 04ce 853d f933 993c 46e9 11bd
000002f0: 59e2 53bd d318 47bc f00f 1e3e 99b1 d13d
00000300: c71e 003e 3883 c73d bb58 9e3c 63aa 3a3d
00000310: a601 ce3d 735f 533c 1f24 a1bd 9b8e 25bc
00000320: 90a7 3fbc 33b3 bd3d d8db 16bd d4c8 d6bd
00000330: 6191 f93d 70ac 0dbd 0708 1f3e 8d32 aabd
00000340: 6c9b a13d 76ab c53d e4f7 cf3d 483f 143e
00000350: 0c22 883e 91dc 4c3e e632 1c3e 9999 db3d
00000360: 588f 193e 9db2 763c c851 943c dedc 9b3d
00000370: bed1 8cbd d055 6abd 98ad 033e 80f3 d23d
00000380: fd90 08bd d229 61bd 314d f83b 066c f63b
00000390: 4dce d4bd f867 fd3d 7115 1dba fdcc 80bd
000003a0: 07d7 af3d d2cf 3cbd 315e 6d3d 4fc9 c13d
000003b0: b213 e73c 72aa da3c 83fa da3d f798 2d3d
000003c0: 7f39 b23d 7ade 5a3d 0d88 053e 8ca9 8a3d
000003d0: d5d4 a0bd 73bf e93d 2e2f 1abe e55d 7f3d
000003e0: ce91 963a 3485 c63d 697b 473d 26f5 eabd
000003f0: 2584 55bb 2326 a4bd f121 66ba b046 293d

lstm.weight_hh_l0 f4 [256, 64]
0.05230573 0.113070615 -0.008387157 -0.080411285 -0.052862372 -0.07547077 0.0061180964 -0.07390553
0.07359798 0.10015977 -0.08702694 0.10387072 0.12613244 0.02875225 -0.01718633 -0.09981788
0.12529579 -0.10491123 -0.043786265 -0.09360327 -0.042195275 -0.01656087 0.041991785 -0.09704546
-0.012870108 -0.09192703 -0.00035631203 0.064505175 0.05936564 0.09703544 0.013439049 -0.040111493
-0.061306145 0.014565722 -0.06935959 -0.07207943 -0.040412467 0.054232 -0.033033155 0.030881235
0.015898382 0.0967963 0.026545156 -0.042822126 -0.07819994 0.098033376 -0.07599923 -0.096834086
0.044401314 0.031454526 0.083558634 -0.050838422 0.021428728 -0.013610068 -0.073371075 -0.097890936
0.07934663 -0.022259459 -0.048317507 -0.023255596 0.05818034 -0.030624835 -0.050459724 0.077298656
0.028505102 -0.071663186 0.074354574 0.09157782 0.094128594 0.043524303 -0.0067252237 0.0681517
0.04986157 0.11229856 -0.074447095 -0.095784195 -0.031195853 -0.02578056 -0.07127986 -0.010885194
0.002967009 -0.08493871 0.03623698 0.011689951 -0.08319242 0.006963288 0.09916673 -0.067450605
0.017945457 -0.06449012 -0.09665993 0.08423431 0.061147284 0.038359396 0.01780096 -0.039053228
0.047650896 -0.074078016 0.09617172 0.08103606 0.029429799 -0.056466337 -0.08776308 0.11813271
-0.04613857 9.538414e-05 0.0041096928 0.12795654 0.04801923 -0.089227445 0.06582837 -0.02559021
0.00253207 0.08003051 0.06392595 0.0023214784 0.08065556 -0.075191475 -0.06560793 0.08373246
0.050016925 0.13601194 0.005692588 -0.08776017 0.021106882 -0.08012332 -0.07758665 -0.022626776
-0.11032061 0.0020828496 -0.06890378 -0.07790766 -0.09871068 0.11353898 0.09744893 0.0062209875
-0.112671815 -0.004824648 0.0031880962 -0.09308539 0.0022390077 0.076610394 -0.003694837 0.018768959
0.056484986 -0.078491926 -0.104502164 0.054508943 0.10265689 0.08774112 -0.0071742684 0.09295384
0.016749237 -0.058455013 0.10516153 -0.065235496 -0.06919723 -0.010826536 -0.066123255 0.051208004
-0.13552961 -0.13892084 -0.09524431 0.054555286 -0.09940867 0.099099316 -0.056748793 0.10455275
-0.052366693 -0.03415893 0.06393371 -0.04316591 -0.022715533 -0.005372157 -0.037316572 -0.05325955
0.014545563 0.021815753 0.020363756 -0.036484696 -0.0022746087 0.04365005 -0.057078544 -0.09583049
0.027624955 -0.06384222 -0.11371478 0.10599168 0.04786759 0.039710425 0.033056613 0.018246748
-0.022491064 -0.11684049 -0.041989002 -0.08635209 -0.0702084 -0.021556024 0.04928333 0.071453996
0.027720075 -0.021854846 -0.044993125 0.05108799 -0.015001458 0.11236403 -0.0603599 0.027355654
-0.06527165 -0.04667032 -0.055287573 0.07186077 -0.007135446 -0.024655018 -0.033372793 0.0075584594
-0.10628901 0.009824114 0.07209169 0.03345201 -0.019184731 -0.07668497 -0.055282008 -0.033865288
0.012090582 -0.06323601 -0.00881729 0.10271906 0.10248207 -0.021617351 -0.065188006 -0.0051210127
-0.03675814 -0.027201096 0.03735452 -0.09755903 0.1261357 -0.11444228 -0.044921514 0.011621778
-0.03155206 -0.068759605 -0.08245911 -0.101623714 0.05860154 0.037827123 0.05993137 -0.04035311
0.06833766 -0.086096205 0.08393897 0.012928895 -0.091965355 -0.023940353 0.07125285 -0.123293445
00000000: 883e 563d 9191 e73d 496a 09bc acae a4bd
00000010: 3786 58bd 6b90 9abd 507a c83b c85b 97bd
00000020: 8aba 963d 9120 cd3d 2e3b b2bd 2cba d43d
00000030: dd28 013e d789 eb3c 59ca 8cbc 516d ccbd
00000040: 8a4d 003e b3db d6bd 3a59 33bd 12b3 bfbd
00000050: f4d4 2cbd a9aa 87bc 94ff 2b3d c5bf c6bd
00000060: 25dd 52bc 3d44 bcbd 64cf bab9 4a1b 843d
00000070: 6329 733d 84ba c63d 752f 5c3c f34b 24bd
00000080: 271c 7bbd 11a5 6e3c 670c 8ebd 619e 93bd
00000090: 8b87 25bd 6022 5e3d c64d 07bd a5fa fc3c
000000a0: 533d 823c 233d c63d 3a75 d93c 4166 2fbd
000000b0: 4a27 a0bd b9c5 c83d 7ca5 9bbd f350 c6bd
000000c0: 27de 353d 76d6 003d ca20 ab3d f33b 50bd
000000d0: 4d8b af3c c3fc 5ebc 9343 96bd 0b7b c8bd
000000e0: 7c80 a23d 7859 b6bc 94e8 45bd 8582 bebc
000000f0: 824e 6e3d efe0 fabc dbae 4ebd c24e 9e3d
00000100: 8883 e93c 26c4 92bd 3647 983d 278d bb3d
00000110: 7ec6 c03d 8a46 323d 445f dcbb 1e93 8b3d
00000120: a53b 4c3d cafc e53d b877 98bd 812a c4bd
00000130: 728e ffbc c131 d3bc 2dfb 91bd d057 32bc
00000140: 2772 423b 59f4 adbd 3a6d 143d 3587 3f3c
00000150: ca60 aabd 4b2c e43b ed17 cb3d 8b23 8abd
00000160: 5a02 933c 6513 84bd a4f5 c5bd 0a83 ac3d
00000170: 9375 7a3d be1e 1d3d 52d3 913c 47f6 1fbd
00000180: 962d 433d 37b6 97bd aef5 c43d 3cf6 a53d
00000190: c316 f13c 3f49 67bd 21bd b3bd 90ef f13d
000001a0: ccfb 3cbd f808 c838 9aaa 863b 0a07 033e
000001b0: d0af 443d e1bc b6bd 06d1 863d 8fa2 d1bc
000001c0: 16f1 253b 09e7 a33d 9ceb 823d f223 183b
000001d0: be2e a53d fdfd 99bd 735d 86bd ed7b ab3d
000001e0: 8cde 4c3d b746 0b3e e488 ba3b 9bbb b3bd
000001f0: 57e8 ac3c b217 a4bd c0e5 9ebd ca5b b9bc
00000200: c6ef e1bd 6b80 083b 6d1d 8dbd 0d8e 9fbd
00000210: d328 cabd 2087 e83d 4e93 c73d 6dd9 cb3b
00000220: 7bc0 e6bd 1518 9ebb 61ef 503b 8ea3 bebd
00000230: 51bc 123b e9e5 9c3d 1425 72bb 5cc1 993c
00000240: cd5c 673d 60c0 a0bd 3b05 d6bd c544 5f3d
00000250: c73d d23d 9eb1 b33d 2016 ebbb 955e be3d
00000260: b235 893c 866e 6fbd ee5e d73d 309a 85bd
00000270: 47b7 8dbd c961 31bc a16b 87bd 7cbf 513d
00000280: 46c8 0abe 4441 0ebe 730f c3bd 5d75 5f3d
00000290: c696 cbbd 95f4 ca3d 6c71 68bd c11f d63d
000002a0: 757e 56bd 3cea 0bbd adef 823d bdce 30bd
000002b0: ed15 babc eb08 b0bb 43d9 18bd b026 5abd
000002c0: 8350 6e3c f3b6 b23c e4d1 a63c fa70 15bd
000002d0: 9a11 15bb 65ca 323d 31cb 69bd c742 c4bd
000002e0: bb4d e23c b6bf 82bd 4be3 e8bd 2a12 d93d
000002f0: ce10 443d 66a7 223d 5f66 073d 347a 953c
00000300: 2e3f b8bc 114a efbd a9fc 2bbd 5dd9 b0bd
00000310: 6cc9 8fbd 4296 b0bc 51dd 493d 7956 923d
00000320: 3615 e33c ef08 b3bc b64a 38bd a441 513d
00000330: adc8 75bc 1d1f e63d f13b 77bd f718 e03c
00000340: 25ad 85bd 6129 3fbd 3975 62bd bd2b 933d
00000350: 76d0 e9bb 52f9 c9bc e9b1 08bd f4ac f73b
00000360: 0dae d9bd 52f5 203c cfa4 933d fa04 093d
00000370: 4c29 9dbc 020d 9dbd 636f 62bd 54b6 0abd
00000380: 9417 463c e281 81bd 6576 10bc 5f5e d23d
00000390: 1fe2 d13d df16 b1bc 4a81 85bd 2bce a7bb
000003a0: b48f 16bd d5d4 debc 0e01 193d 07cd c7bd
000003b0: b829 013e b760 eabd 9fff 37bd 4569 3e3c
000003c0: bc3c 01bd d6d1 8cbd 52e0 a8bd 1820 d0bd
000003d0: 2b08 703d 9df0 1a3d 997a 753d 4d49 25bd
000003e0: 9df4 8b3d 3553 b0bd 32e8 ab3d b7d3 533c
000003f0: 5558 bcbd 8f1e c4bc 04ed 913d 4681 fcbd

lstm.bias_ih_l0 f4 [256]
-0.022396663 -0.08820621 0.073154494 0.097126946 -0.062556155 0.017134126 0.0018453962 -0.032048393
0.09061882 0.12122604 -0.07253791 0.06996534 0.111092895 -0.016837131 0.0032070763 0.040524032
0.11616493 0.06429564 -0.08767351 0.03369986 -0.008289209 -0.10172519 -0.07341003 0.009420111
-0.11649768 0.14738984 0.1297671 -0.07692999 0.06583582 0.09435525 0.08860487 -0.010390058
0.07072024 0.1865241 -0.0033828395 0.11900009 0.053136494 0.08372181 -0.017346358 0.32929882
-0.019954404 0.1227091 -0.08791353 -0.037362244 -0.07092923 -0.07980305 0.05127698 0.019996785
0.088880345 -0.13071294 -0.050432805 -0.01582039 0.044398867 0.20558849 -0.069646895 -0.072543874
-0.061921973 0.11374141 -0.06603143 -0.08074676 0.08886122 0.13617459 0.13127582 0.023933964
0.13674973 -0.010669656 -0.09811785 0.111206405 0.10307426 -0.043880664 0.008475745 0.075922936
0.031195626 0.048026863 0.010647545 0.043242954 0.11755457 -0.013171092 -0.08053918 -0.06367374
-0.01139562 -0.039914295 0.12752235 0.081745364 -0.10466255 -0.0712247 0.037588507 0.09092565
-0.012199915 -0.01568126 -0.025072569 -0.03558733 0.12133492 -0.08383216 0.095094495 0.08956475
0.0941487 -0.01148812 0.10524893 0.11671694 0.033880997 -0.04577458 0.09027831 0.01641663
0.02880222 -0.041041553 -0.010486334 0.08545331 0.0037611185 0.0013564602 0.058810003 0.010411169
0.07125655 0.08693468 -0.0077163707 0.10592444 -0.0015712413 -0.081604294 -0.04403744 0.044301637
0.12377303 -0.08622751 -0.0070478227 -0.030061569 0.02217689 -0.08367965 0.022485081 -0.005606417
-0.1377473 -0.088336214 -0.092900954 0.064180925 -0.041458394 -0.077399835 0.11712342 -0.124665536
0.006706034 0.08160739 -0.056540474 -0.13499501 0.08761763 0.09531716 -0.06369351 0.014221378
-0.025964981 0.07525859 0.015891053 0.07868927 -0.08408926 -0.12941173 -0.102781326 0.014126705
-0.078849144 0.053822875 0.06445407 0.00067756674 0.12536451 0.051972575 -0.12881953 0.058180712
0.003497491 -0.094385825 -0.039895922 0.059602715 0.04767931 -0.030243725 0.011717449 -0.08729924
-0.069415 0.06869353 0.007963725 -0.0123883 -0.081105076 -0.069368094 -0.028687911 0.067689575
0.09149061 -0.061875515 0.09466154 -0.0931831 -0.029614579 -0.056263283 -0.021116229 0.04511646
-0.07092277 0.13232559 -0.0028935522 -0.09865734 -0.1043665 -0.10084699 0.07156982 0.018852953
-0.057799783 0.052759048 -0.08662367 -0.025158329 0.08678233 0.05482527 0.06588148 -0.09175295
0.056766506 -0.038347423 0.022810502 -0.07438934 -0.014515932 -0.09610381 -0.008683577 -0.05475415
0.12309172 0.013413766 -0.0075323936 0.037586622 0.0068710917 -0.0016853131 0.11528584 0.029055398
0.021403419 0.10604087 0.09154158 0.040673196 0.13207637 0.10286371 -0.07862577 0.0118221175
-0.015365948 0.21401496 0.08691012 -0.04862428 -0.10319795 0.1258791 0.07178367 0.1303181
0.110654525 -0.035616007 0.06533876 0.060683284 -0.08836712 0.065205395 -0.03868571 -0.084698856
0.06496311 -0.020311097 -0.11188668 0.03760273 0.12101617 0.07057666 -0.024344314 -0.007878051
-0.08653131 -0.04079251 -0.06997229 0.05383275 0.042532943 0.10185622 0.027817015 0.028177166
00000000: 3579 b7bc 75a5 b4bd 06d2 953d 7eea c63d
00000010: 711d 80bd de5c 8c3c 39e1 f13a 2d45 03bd
00000020: 5c96 b93d 5c45 f83d c18e 94bd fd49 8f3d
00000030: ac84 e33d 06ee 89bc d02d 523b 87fc 253d
00000040: e1e7 ed3d 6fad 833d 2b8e b3bd dd08 0a3d
00000050: 76cf 07bc 4c55 d0bd ff57 96bd cf56 1a3c
00000060: 5696 eebd 5ded 163e abe1 043e 788d 9dbd
00000070: eed4 863d 533d c13d 7876 b53d 103b 2abc
00000080: c6d5 903d 2c00 3f3e a1b2 5dbb 52b6 f33d
00000090: a7a5 593d 5776 ab3d f319 8ebc db99 a83e
000000a0: 6b77 a3bc e94e fb3d 020c b4bd 2709 19bd
000000b0: 5843 91bd c86f a3bd d007 523d 4cd0 a33c
000000c0: e606 b63d 9dd9 05be a192 4ebd c399 81bc
000000d0: 96db 353d ca85 523e 08a3 8ebd e291 94bd
000000e0: e5a1 7dbd 42f1 e83d 7d3b 87bd 8f5e a5bd
000000f0: dffc b53d 5a71 0b3e 2b6d 063e 2911 c43c
00000100: 1f08 0c3e c8cf 2ebc 03f2 c8bd 2fc0 e33d
00000110: 9918 d33d 36bc 33bd dadd 0a3c 7c7d 9b3d
00000120: f88d ff3c d1b7 443d 0a73 2e3c 861f 313d
00000130: 73c0 f03d 90cb 57bc baf1 a4bd 6167 82bd
00000140: b2b4 3abc 2c7d 23bd 3895 023e 1d6a a73d
00000150: 5259 d6bd 41de 91bd 68f6 193d 3a37 ba3d
00000160: 27e2 47bc fc75 80bc fd64 cdbc 05c4 11bd
00000170: 717e f83d 32b0 abbd e7c0 c23d b96d b73d
00000180: 09d1 c03d ab38 3cbc c08c d73d 4b09 ef3d
00000190: cdc6 0a3d 207e 3bbd d6e3 b83d 2b7c 863c
000001a0: a2f2 eb3c 301b 28bd dfce 2bbc 2502 af3d
000001b0: 197d 763b 40cb b13a c2e2 703d 9c93 2a3c
000001c0: f4ee 913d cf0a b23d 9cd9 fcbb eaee d83d
000001d0: 1cf2 cdba 2720 a7bd 9a60 34bd a275 353d
000001e0: b77c fd3d 0c98 b0bd 6cf1 e6bb ae43 f6bc
000001f0: 4fac b53c 3d60 abbd a232 b83c 09b6 b7bb
00000200: a10d 0dbe 9ee9 b4bd db42 bebd 4a71 833d
00000210: 47d0 29bd ce83 9ebd 67de ef3d a550 ffbd
00000220: 4abe db3b c621 a73d fc96 67bd 223c 0abe
00000230: df70 b33d a535 c33d be71 82bd c800 693c
00000240: 83b4 d4bc 2d21 9a3d f42d 823c d727 a13d
00000250: fd36 acbd 8284 04be 047f d2bd b273 673c
00000260: a97b a1bd 6075 5c3d 7f00 843d bc9e 313a
00000270: 8e5f 003e 32e1 543d 44e9 03be e64e 6e3d
00000280: 2936 653b 5b4d c1bd e869 23bd fa21 743d
00000290: 614b 433d b0c1 f7bc 8bfa 3f3c f2c9 b2bd
000002a0: 7429 8ebd 32af 8c3d 497a 023c 4cf8 4abc
000002b0: 6b1a a6bd dc10 8ebd e902 ebbc d5a0 8a3d
000002c0: 6e5f bb3d 2e71 7dbd e9dd c13d c8d6 bebd
000002d0: 469a f2bc 5474 66bd f1fb acbc 0acc 383d
000002e0: f53f 91bd 5c80 073e c0a1 3dbb dc0c cabd
000002f0: 1bbe d5bd de88 cebd 3393 923d 8271 9a3c
00000300: 77bf 6cbd df19 583d c067 b1bd d718 cebc
00000310: efba b13d 7690 603d dfec 863d f8e8 bbbd
00000320: ff83 683d 3012 1dbd 17dd ba3c 7059 98bd
00000330: 3bd4 6dbc 13d2 c4bd 9045 0ebc e345 60bd
00000340: 8317 fc3d 6ac5 5b3c 4cd2 f6bb 6ef4 193d
00000350: e526 e13b b9e5 dcba fc1a ec3d 9605 ee3c
00000360: 3956 af3c f52b d93d 277a bb3d f098 263d
00000370: 073f 073e 35aa d23d 8c06 a1bd 8eb1 413c
00000380: 75c1 7bbc bd26 5b3e effd b13d 412a 47bd
00000390: 7259 d3bd 73e6 003e 5103 933d 1c72 053e
000003a0: d79e e23d 17e2 11bd 54d0 853d 098f 783d
000003b0: d2f9 b4bd 688a 853d e874 1ebd 9876 adbd
000003c0: 610b 853d 7563 a6bc d824 e5bd 5205 1a3d
000003d0: 53d7 f73d 7f8a 903d ba6d c7bc f112 01bc
000003e0: 5437 b1bd 0c16 27bd a24d 8fbd bb7f 5c3d
000003f0: 0637 2e3d fe99 d03d 82e0 e33c cdd3 e63c

lstm.bias_hh_l0 f4 [256]
-0.065618135 -0.063540585 0.079220586 -0.08925348 0.17993449 -0.077082105 -0.012281434 0.105650015
0.11468798 0.12287758 0.055268202 -0.0007643963 0.020005323 -0.040593 0.12270981 0.06763982
-0.0025757852 0.08117381 0.06904722 -0.0066056163 0.11581881 0.10358579 0.12476124 -0.08525368
0.024559302 0.036641203 -0.051480558 -0.01813504 0.019797385 -0.090064235 0.055904765 0.029099442
0.0143101355 0.07050308 0.08383365 0.07532929 0.012614493 0.098236606 -0.006369033 0.24564467
-0.025326587 0.0617909 0.106316686 0.0045563676 -0.06892329 0.048241097 -0.09681602 -0.068677746
-0.013464267 -0.093222775 0.030093627 0.052839253 -0.016013583 0.0994719 -0.06658694 -0.007361289
-0.03896956 0.1305294 -0.038245775 -0.037940305 0.029552506 0.112138055 -0.058403045 -0.10262897
-0.0154573815 0.059842203 0.11845765 -0.07280329 0.02421037 -0.012598992 0.05014136 0.07873784
0.026107894 -0.05716548 0.10218051 0.045111433 0.1283589 -0.09364339 -0.10053087 -0.0046866345
0.0526999 0.0099457055 0.027624272 -0.005831189 0.072622135 0.08409533 0.024911864 0.032355774
-0.078294605 -0.07733822 0.08547595 0.065349266 0.1326081 0.08059846 0.02578676 0.026269592
-0.0206603 0.08590751 0.049617086 0.051046774 -0.08178578 -0.07034985 0.081478395 -0.13126121
0.06364842 0.051267408 0.036486384 0.032970846 0.109475404 0.07831265 0.038995214 0.018383235
0.030447625 -0.03888365 0.010793164 -0.055799413 0.040257145 0.014862462 0.03781784 0.13253802
-0.011597748 -0.06291779 -0.09302214 0.12027039 -0.08365775 -0.08634399 0.07214481 -0.0012106049
-0.12330094 0.008718715 0.12319735 0.11086667 0.007773172 0.078250505 0.045049965 -0.088441566
-0.048308376 0.13460702 0.117812 -0.031173527 0.08349025 0.11707294 0.03349871 0.08819566
0.07727143 -0.080885254 -0.09420129 -0.029584456 0.121995874 -0.027207335 -0.028951313 0.020734252
-0.031174768 -0.045798454 -0.117913164 0.07646927 0.07210986 0.06152733 -0.01367631 -0.08658055
-0.045062173 -0.12621589 -0.05395262 0.06615975 -0.05412357 0.02605068 0.073280185 0.09542287
0.06632408 -0.100910395 -0.00031421107 0.044591505 0.12558688 0.013215684 -0.004077146 -0.009486928
0.05520272 0.031678557 0.10746793 -0.051117226 0.068329945 0.050584663 0.02848935 -0.07690191
0.12771726 0.087263264 -0.03737938 0.115414254 -0.021753374 0.025958957 0.060330678 -0.086645156
0.13294081 -0.07031645 -0.051577047 -0.04870712 0.09737011 0.0055225557 -0.026840046 0.1296107
0.01351947 0.1252733 0.092685595 0.059528362 -0.019649085 0.056311607 0.070023276 0.04873621
0.1309792 0.09510007 -0.04011292 -0.047799334 -0.012513881 0.10663636 0.046935804 0.09783057
-0.014025346 0.100327805 -0.082097046 -0.07987659 -0.0509208 -0.003463692 0.11168488 -0.036589507
-0.038694 0.22759217 0.04140988 0.058822326 0.006761876 0.024458434 0.12426895 0.23838215
-0.09469949 -0.11839151 -0.01810296 0.071809754 -0.036324196 -0.085984364 0.12547424 -0.087722205
-0.023917524 0.09769855 0.10712367 -0.13162982 -0.05485119 0.06409936 -0.028222684 -0.06743983
-0.06588239 -0.013465804 0.027351305 0.08070395 0.0086708935 -0.04834733 -0.02463759 0.06692744
00000000: cd62 86bd 9121 82bd 673e a23d 87ca b6bd
00000010: bf40 383e 39dd 9dbd 1138 49bc 095f d83d
00000020: 88e1 ea3d 3ea7 fb3d e960 623d c461 48ba
00000030: 34e2 a33c d844 26bd 484f fb3d bf86 8a3d
00000040: 81ce 28bb 743e a63d a168 8d3d ed73 d8bb
00000050: 6a32 ed3d c924 d43d d282 ff3d 7b99 aebd
00000060: 9730 c93c 1615 163d 47dd 52bd ef8f 94bc
00000070: 202e a23c 9973 b8bd 65fc 643d f461 ee3c
00000080: 0f75 6a3c eb63 903d fab0 ab3d 3e46 9a3d
00000090: 05ad 4e3c 4630 c93d 52b3 d0bb 478a 7b3e
000000a0: b479 cfbc 7418 7d3d 90bc d93d 954d 953b
000000b0: a727 8dbd 7598 453d 7a47 c6bd eba6 8cbd
000000c0: 3b99 5cbc 95eb bebd e986 f63c f96d 583d
000000d0: eb2e 83bc ecb7 cb3d bc5e 88bd f836 f1bb
000000e0: 8c9e 1fbd 80a9 053e 9aa7 1cbd 4b67 1bbd
000000f0: 1918 f23c a3a8 e53d 0838 6fbd 232f d2bd
00000100: f540 7dbc 191d 753d ed99 f23d e419 95bd
00000110: d354 c63c 016c 4ebc 0761 4d3d 4e41 a13d
00000120: 39e0 d53c 5a26 6abd 0444 d13d c4c6 383d
00000130: 8470 033e 1bc8 bfbd 21e3 cdbd 5792 99bb
00000140: dadb 573d 50f3 223c 4c4c e23c 8f13 bfbb
00000150: eaba 943d 2c3a ac3d f713 cc3c 7d87 043d
00000160: ec58 a0bd 8063 9ebd 040e af3d d6d5 853d
00000170: 6bca 073e ce10 a53d c13e d33c 5433 d73c
00000180: ca3f a9bc 47f0 af3d 493b 4b3d 6c16 513d
00000190: 4e7f a7bd 9513 90bd 25de a63d 5769 06be
000001a0: 1a5a 823d c6fd 513d bf72 153d 700c 073d
000001b0: a434 e03d 6262 a03d 72b9 1f3d 7098 963c
000001c0: 4c6d f93c 7644 1fbd d0d5 303c ed8d 64bd
000001d0: ade4 243d af81 733c e1e6 1a3d 0cb8 073e
000001e0: 7b04 3ebc 0bdb 80bd 6482 bebd 5250 f63d
000001f0: c154 abbd 1ed5 b0bd a8c0 933d 29ad 9eba
00000200: 3485 fcbd f1d8 0e3c e44e fc3d 110e e33d
00000210: 18b6 fe3b cd41 a03d 5086 383d da20 b5bd
00000220: 01df 45bd 6cd6 093e 6b47 f13d a05f ffbc
00000230: f0fc aa3d f0c3 ef3d f135 093d ed9f b43d
00000240: 7c40 9e3d 2ba7 a5bd 9bec c0bd 1a5b f2bc
00000250: f9d8 f93d ebe1 debc 4e2b edbc e1da a93c
00000260: 3a62 ffbc 2997 3bbd 757c f1bd ec9b 9c3d
00000270: 56ae 933d 1504 7c3d 9a12 60bc 2551 b1bd
00000280: 1d93 38bd bd3e 01be 6cfd 5cbd c37e 873d
00000290: adb0 5dbd 3c68 d53c ec13 963d 116d c33d
000002a0: ebd4 873d 1caa cebd b2bc a4b9 95a5 363d
000002b0: d999 003e 9986 583c 9499 85bb 0f6f 1bbc
000002c0: 3f1c 623d 60c1 013d 2518 dc3d 4c60 51bd
000002d0: 92f0 8b3d dd31 4f3d 7f62 e93c c07e 9dbd
000002e0: 50c8 023e 15b7 b23d 1f1b 19bd 4f5e ec3d
000002f0: 2234 b2bc e1a7 d43c 4d1d 773d 0473 b1bd
00000300: a321 083e 1202 90bd 7442 53bd 1e81 47bd
00000310: fb69 c73d 8ef6 b43b a8df dbbc abb8 043e
00000320: c480 5d3c a547 003e f2d1 bd3d 03d4 733d
00000330: 1ef7 a0bc 00a7 663d 5d68 8f3d 9f9f 473d
00000340: 691f 063e d3c3 c23d 724d 24bd 3cc9 43bd
00000350: 0507 4dbc 2a64 da3d c23f 403d 655b c83d
00000360: 91ca 65bc aa78 cd3d 7f22 a8bd 5696 a3bd
00000370: 5492 50bd 1cff 62bb 0bbb e43d e1de 15bd
00000380: 9a7d 1ebd ec0d 693e 689d 293d aeef 703d
00000390: ba92 dd3b 0e5d c83c b880 fe3d 731a 743e
000003a0: cef1 c1bd 3f77 f2bd a94c 94bc fe10 933d
000003b0: aec8 14bd 9218 b0bd 527c 003e b3a7 b3bd
000003c0: afee c3bc 2d16 c83d a863 db3d f8c9 06be
000003d0: a4ab 60bd 8646 833d 4233 e7bc e51d 8abd
000003e0: 59ed 86bd ad9f 5cbc d80f e03c 1d48 a53d
000003f0: 5d10 0e3c da07 46bd c5d4 c9bc 4111 893d

dense.weight f4 [4, 64]
-0.08557155 -0.109475255 0.10354681 -0.019119306 -0.015749807 0.116364166 0.06700209 -0.086698785
0.0053463746 0.124643944 0.077143714 -0.01398361 0.04117098 0.08367396 -0.055795584 -0.0107694995
0.0014280579 -0.109322 -0.03176913 -0.033492498 0.10206848 0.05845705 0.118563116 0.11824393
0.09638298 -0.11210823 0.048424095 -0.08242902 0.0005882515 0.112211786 -0.11702238 -0.0681661
-0.009597956 0.23023441 -0.1022862 0.11023527 0.07121785 0.03566953 -0.14242508 -0.15567152
-0.056904014 0.051663313 0.0794235 0.0072555924 -0.0051954417 -0.08906592 -0.09745804 0.13083045
-0.0618524 -0.0032415644 -0.063730784 -0.14252028 -0.045727275 -0.106819235 0.16094321 0.01755859
0.13283928 0.10344424 0.09154936 0.13880683 -0.042074226 -0.025265342 -0.1141573 -0.122096054
-0.017925663 -0.10410234 -0.051314056 -0.0028095294 -0.13296069 0.052047744 -0.07897712 -0.02860113
-0.07669866 0.12502958 0.09518836 -0.041252848 0.067752935 0.074137576 -0.088859424 0.10916105
0.13254994 -0.11420255 -0.045807026 0.055722337 0.07042564 -0.041032948 0.029419415 -0.00041663588
0.066631116 0.07575347 -0.104514584 0.025798254 0.034059633 0.08321674 -0.06229852 -0.14308834
-0.08463199 0.049085736 0.045235004 0.106764056 0.1189658 -0.07006959 -0.13016447 0.23174709
-0.058433108 0.08164922 0.05041244 0.03911725 0.10075815 -0.1067421 -0.043896746 0.061044045
-0.048394 -0.11231904 0.091846675 -0.007848606 -0.06908804 -0.13218561 0.0045043672 0.06642717
0.11340128 0.09693125 0.08133259 0.13123682 -0.07408016 -0.081594 -0.030435657 0.01563703
-0.034843817 -0.016401142 0.114702925 -0.081600994 -0.16532597 0.07118985 0.025043912 -0.050270997
-0.086850025 0.09814131 0.003191265 -0.061833385 0.0123569155 -0.047301374 -0.02982167 0.06796901
0.081296906 -0.079788975 -0.07267751 0.1149344 0.09481183 -0.012001368 0.06203625 0.052993454
-0.13058765 -0.054747432 -0.104026295 -0.08956722 0.017788924 0.061037727 -0.05969853 0.028942853
-0.0424852 0.05799039 -0.051246837 0.09624952 -0.015078537 -0.048945647 0.06627249 -0.3392333
-0.011551204 0.027909126 0.10951032 0.12391358 0.0331992 -0.06513741 -0.04372119 0.085583426
-0.21873805 -0.034169547 0.07497524 -0.11695698 -0.023314398 -0.27823636 0.12631932 0.03311273
-0.040388998 -0.08837801 0.078668736 0.021625102 -0.09913333 0.06996658 -0.046512827 0.042020243
-0.09506376 -0.0499745 0.09941731 0.14215471 0.13679945 0.030997572 0.051653083 -0.11549504
-0.02227905 0.006446838 0.055197462 -0.086737 0.11090932 0.014017739 -0.011103788 -0.036904693
0.053412914 -0.13118646 -0.073647626 -0.13371587 0.08279343 -0.10375352 0.08642004 -0.039277185
-0.032302894 -0.113745496 -0.018074298 0.062151577 0.044937894 0.02654833 -0.013170045 -0.07300699
-0.099005885 -0.18598613 0.02902568 0.055697683 0.11297396 0.11276135 0.07345939 0.26506174
0.055240575 0.038809944 0.07332289 0.048757862 0.069057845 -0.12439917 -0.024688307 -0.040712655
-0.030510554 0.0535504 -0.04587754 0.029358936 -0.08887289 0.13737778 -0.032444704 0.05981883
0.1147412 0.016134609 -0.01981354 0.09877011 -0.058703758 -0.08720829 0.004288403 -0.11457398
00000000: 2340 afbd 9034 e0bd 5a10 d43d 17a0 9cbc
00000010: bd05 81bc 5650 ee3d 6438 893d 228f b1bd
00000020: a430 af3b 5345 ff3d 86fd 9d3d 831b 65bc
00000030: e7a2 283d 415d ab3d e989 64bd 8e72 30bc
00000040: ac2d bb3a 36e4 dfbd 5920 02bd 6e2f 09bd
00000050: 4709 d13d a970 6f3d 38d1 f23d e029 f23d
00000060: 7164 c53d 0099 e5bd 5858 463d 8cd0 a8bd
00000070: e434 1a3a 4bcf e53d 6ea9 efbd ab9a 8bbd
00000080: bf40 1dbc 92c2 6b3e 6d7b d1bd 07c3 e13d
00000090: aada 913d 371a 123d e1d7 11be 5b68 1fbe
000000a0: 2f14 69bd e99c 533d caa8 a23d 52c0 ed3b
000000b0: 863e aabb 3168 b6bd 1598 c7bd 6bf8 053e
000000c0: f158 7dbd 6d70 54bb 4985 82bd d6f0 11be
000000d0: 864c 3bbd 0bc4 dabd 4cce 243e 08d7 8f3c
000000e0: 0507 083e 93da d33d 3b7e bb3d 6123 0e3e
000000f0: 0656 2cbd 43f9 cebc 4dcb e9bd 7f0d fabd
00000100: d7d8 92bc 9c33 d5bd b02e 52bd 1520 38bb
00000110: d926 08be 0430 553d c2be a1bd eb4c eabc
00000120: 3014 9dbd c107 003e 1df2 c23d bff8 28bd
00000130: 0dc2 8a3d 71d5 973d eefb b5bd d48f df3d
00000140: 2cbb 073e 07e3 e9bd 26a0 3bbd 1b3d 643d
00000150: 513b 903d 2a12 28bd fc00 f13c ec6f dab9
00000160: e575 883d a324 9b3d be0b d6bd dc56 d33c
00000170: 1d82 0b3d 8a6d aa3d bc2c 7fbd c085 12be
00000180: 8953 adbd 200e 493d 5748 393d 1da7 da3d
00000190: 57a4 f33d a580 8fbd d649 05be 1c4f 6d3e
000001a0: 8e57 6fbd b537 a73d 467d 4e3d 6939 203d
000001b0: 4a5a ce3d 9a9b dabd 13cd 33bd 5209 7a3d
000001c0: c938 46bd 8607 e6bd 1c1a bc3d 7197 00bc
000001d0: 087e 8dbd aa5b 07be 5f99 933b f80a 883d
000001e0: ee3e e83d e483 c63d b391 a63d f262 063e
000001f0: 57b7 97bd c11a a7bd 3354 f9bc 3b19 803c
00000200: 64b8 0ebd b05b 86bc 5ee9 ea3d 6c1e a7bd
00000210: 364b 29be fccb 913d e428 cd3c f6e8 4dbd
00000220: 6dde b1bd 50fe c83d 8b24 513b 0145 7dbd
00000230: a974 4a3c 16bf 41bd 934c f4bc 5633 8b3d
00000240: fe7e a63d 6768 a3bd f2d7 94bd ba62 eb3d
00000250: b42c c23d 63a1 44bc b919 7e3d aa0f 593d
00000260: c5b8 05be d83e 60bd bd0b d5bd 056f b7bd
00000270: 14ba 913c b202 7a3d 7286 74bd 9019 ed3c
00000280: f604 2ebd 5587 6d3d 34e8 51bd 781e c53d
00000290: f80b 77bc 3b7b 48bd dfb9 873d fdaf adbe
000002a0: 4341 3dbc aea1 e43c f246 e03d 67c6 fd3d
000002b0: e2fb 073d c366 85bd fe14 33bd 5d46 af3d
000002c0: defc 5fbe 5ef5 0bbd 9e8c 993d 2487 efbd
000002d0: d6fd bebc ff74 8ebe da59 013e 37a1 073d
000002e0: ef6e 25bd 88ff b4bd 131d a13d 2027 b13c
000002f0: 6a06 cbbd a34a 8f3d 3c84 3ebd 6b1d 2c3d
00000300: cab0 c2bd 10b2 4cbd 4d9b cb3d 0191 113e
00000310: 2815 0c3e 9fee fd3c 2f92 533d aa88 ecbd
00000320: 8e82 b6bc ff3f d33b bc16 623d 2ba3 b1bd
00000330: 6d24 e33d a9aa 653c aaec 35bc 6029 17bd
00000340: 80c7 5a3d be55 06be 91d4 96bd d0ec 08be
00000350: 9a8f a93d ba7c d4bd fdfc b03d 1de1 20bd
00000360: 0a50 04bd 66f3 e8bd 8d10 94bc a792 7e3d
00000370: cc10 383d e27b d93c 2cc7 57bc b084 95bd
00000380: 99c3 cabd 2673 3ebe 43c7 ed3c 4123 643d
00000390: e45e e73d 6cef e63d e071 963d 2cb6 873e
000003a0: f143 623d 2df7 1e3d 502a 963d 53b6 473d
000003b0: 336e 8d3d fec4 febd 223f cabc 50c2 26bd
000003c0: 45f1 f9bc aa57 5b3d 16ea 3bbd 2782 f03c
000003d0: fd02 b6bd c3ac 0c3e bde4 04bd 9704 753d
000003e0: 6ffd ea3d ba2c 843c 0150 a2bc fc47 ca3d
000003f0: 5a73 70bd 439a b2bd bb85 8c3b c3a5 eabd

dense.bias f4 [4]
-0.05059905 -0.05865163 0.11794478 -0.052549213
00000000: f340 4fbd b13c 70bd 088d f13d d83d 57bd
