trained_model/lstm_glass_anomaly.pth (torch, 75446 bytes, 6 tensors)

lstm.weight_ih_l0 f4 [256, 4]
00000000: 8270 fa3d 254a 1d3e d5c2 9bbc 9280 003e
00000010: 12dd 8c3e b188 693e 5584 883e cc60 5c3e
00000020: 5291 043e 132d 0fbd b400 a8bc 43ff 4eba
00000030: 6c54 26bd 0553 153e 58c5 803d 7ae1 91bd
00000040: 24a7 423d 1535 583d 1a48 1b3e c223 303e
00000050: 7879 483e b01a 60bd 0c7e 683e 0b37 a63d
00000060: b807 123d 6fc9 653e bafe a93d 0360 3b3e
00000070: b396 853d 69ab 75bd d7b8 57bc af5e b73d
00000080: cb94 83bc 9444 67bc 47bf f23d 3b24 f13c
00000090: f608 9fbd 31ca ab3d 3164 37bd dd9d 063e
000000a0: be7c 863d 741e 393d b38e 173e 11cc 273e
000000b0: bb49 013d 542d 5abd 09ff 9c3d cb37 663d
000000c0: f1a3 e53d bc09 0d3e a3ca af3d 7ccc 003e
000000d0: 98ff 8d3d ea5b 103e 0368 4d3e 6a69 ee3d
000000e0: 4b1b 8b3d fe58 c4bd 6164 673c 856a c93d
000000f0: 32d7 1d3d 4fc5 113e c7b9 b83d 8ce6 403c
00000100: 326b 333e 9e08 0a3e f5b0 ac3d 8876 663e
00000110: b7ab c63d 18f8 9fbd f817 14bd 8e22 b7bd
00000120: 6cdc e5bb e213 b9bd 7733 903d f2dd 89bd
00000130: bc3f 33bc 3cc4 513d d311 f0bc 1432 033e
00000140: 4ec5 813c 27c7 be3d 87fe 43bd 48bd 9dbd
00000150: cd6b f53d 40d9 0e3d d115 f0bc fdb8 5fbd
00000160: a0f0 f7ba 9f2f e6bc edce f63c 2bcc c2bc
00000170: f19c febb 404f 8e3c 65e7 883d 0b6a 4fbc
00000180: c671 7b3c 2a19 093e 33fa 213d dd6f 343d
00000190: 8029 6f3d 8b59 f6bd 2076 e53b 8651 d6bc
000001a0: a371 c73d f4ae 5e3d 0867 80bc 96e3 8ebd
000001b0: 668c 8abd 2ad4 2cbd e6c0 3ebd c821 aebd
000001c0: 3488 c33d 5010 783d e743 133d 67be 013e
000001d0: 3ff6 e63d 26c3 db3d 41c2 053e 932f 223e
000001e0: 54ed d63c 3d3a f73c 9288 cd3d 897c 4ebb
000001f0: 7a1f a5bd 5d02 a13d 4983 433d ee52 103e
00000200: 51a0 a73d 3810 853d 228c dc3d 51ef e33d
00000210: 0b16 0a3e e14b 153e f0cb 2ebd 585b 92bc
00000220: bb49 b3bd a717 c13d 10c1 063e 693f d5bd
00000230: bfc9 1d3e c3aa 4e3d 9702 a23d dbe3 343d
00000240: ff33 b1bd efc7 9abd 94b3 b23d ea8e a7bd
00000250: fb3e e03c 7128 7a3c c1b1 e83d c690 1ebd
00000260: 5cf7 3c3d d82f b13d 36ff 2cbd f1d7 e73d
00000270: 856e ea3d fed8 cdbd 26c3 8d3c 7a53 293c
00000280: 105e 143d bcc1 273d c00c 183c f204 aa3d
00000290: c183 34bd 9328 23be a40c 823d eef5 05bd
000002a0: f286 d83c 651e fc3d e18f 80bd c709 09bd
000002b0: 7ca9 153e 9c3b 5e3c 5771 9fbd 44b5 8fbd
000002c0: f463 edbc e52b a33d da23 75b7 2f0b f83d
000002d0: 6ddd af3b f60c 223d 90ce 1f3c 5a26 043d
000002e0: d54b e73d e9b5 5d3d 5999 e73d edf1 d63c
000002f0: 7405 87bc 6040 66bd 3a60 2f3d 4504 cd3c
00000300: 9805 a2bd a3c2 9d3d e3d8 5d3b 26fb 66bd
00000310: 8a7b d43d 02af 553d 5d54 cbbc 847b f4bb
00000320: 914a 793d 21a2 70bd b2d9 80ba 2211 983d
00000330: b4f1 8abc 86a7 f83d 0f70 0abd 8c0f 69bd
00000340: 908f d93d 87ec 48bd 3fb8 e73b f102 8f3d
00000350: f016 cd3d 64c8 80bd cead 85bd cd73 c33d
00000360: f42f cebd 66b1 8d3d d6fc a63d 388f 10bd
00000370: 7a81 1fbd 792e 693d 12b6 35bd 97f5 043e
00000380: 9027 a23d c803 83bc a980 c7bd 623f 31bd
00000390: 3e3c 5d3c 7db6 85bd e143 e13d 22e2 b6bd
000003a0: c3ce fa3c c3b1 a53d 2e48 9b3d 42cb 62bd
000003b0: 32d8 e73d 5b3c f03d 47f7 b3bd 7358 ec3d
000003c0: ca29 debc 8990 8a3d 7e83 a13d 7fc7 f03d
000003d0: 13aa 133e cc72 efbc 6fc5 973d 3efc c13b
000003e0: b079 3138 48e5 263e ccf1 2c3d 136c cbb9
000003f0: d185 9abd 86f7 ccbd 3838 e03d 0e36 293e
0.122284904 0.15360315 -0.019013802 0.12549046 0.27512413 0.2280605 0.2666346 0.215213
0.1294606 -0.034955095 -0.020508148 -0.00078963133 -0.040607855 0.1458245 0.0628764 -0.07123084
0.04752268 0.052784998 0.15164223 0.1720114 0.19577587 -0.05471295 0.22704333 0.08115967
0.035651892 0.22440122 0.08300538 0.18298344 0.06522884 -0.059977923 -0.013166628 0.08953606
-0.016062161 -0.014115471 0.118528895 0.029436221 -0.07765381 0.08388174 -0.044773284 0.13146158
0.065667614 0.045195058 0.14800529 0.16386439 0.031564455 -0.053265885 0.076658316 0.056205552
0.1121291 0.13773245 0.08583572 0.12578005 0.06933516 0.14097562 0.20059209 0.116412
0.06792315 -0.095872864 0.014123053 0.0983477 0.038535304 0.14235424 0.09019809 0.011773717
0.1752136 0.1347985 0.084321894 0.22506154 0.09700721 -0.07810992 -0.03615567 -0.08942138
-0.0070148017 -0.090369955 0.07041066 -0.06731786 -0.010940488 0.051212534 -0.029305374 0.12812072
0.015841153 0.09315329 -0.047850158 -0.07702118 0.11983452 0.034875154 -0.029307278 -0.054619778
-0.0018916316 -0.02809888 0.030127967 -0.023778995 -0.0077701737 0.017371774 0.0668476 -0.01265956
0.01534695 0.13388506 0.03954525 0.044051994 0.058389187 -0.12028798 0.007002607 -0.02616192
0.09738471 0.054366067 -0.01567413 -0.06977002 -0.0676506 -0.042194523 -0.04657068 -0.08502537
0.09547463 0.06056243 0.03595343 0.12670289 0.112774365 0.10730581 0.13062383 0.1583846
0.026236214 0.030179137 0.10035814 -0.0031507334 -0.08062644 0.07861779 0.047732625 0.14094135
0.08184875 0.06497234 0.10768916 0.1112963 0.13484971 0.14579727 -0.04267496 -0.017865822
-0.08754297 0.094283395 0.13159585 -0.10412485 0.15408991 0.05045582 0.0791065 0.044162612
-0.086524956 -0.075576656 0.08725658 -0.081815556 0.027373781 0.015268431 0.11362029 -0.038712285
0.046134338 0.086517036 -0.042235576 0.113204844 0.11446861 -0.100511536 0.017304968 0.010334844
0.036222517 0.040956244 0.009280384 0.083017245 -0.044070963 -0.15933447 0.06350067 -0.03270524
0.026431534 0.12310485 -0.06277443 -0.03345659 0.14615434 0.013564017 -0.0778529 -0.070169955
-0.028978325 0.079673566 -1.4611485e-05 0.12111508 0.005366972 0.03956314 0.009753838 0.032263137
0.11293761 0.05412856 0.113085456 0.026238406 -0.016482092 -0.056213737 0.04281638 0.02502645
-0.07911223 0.0770314 0.0033851198 -0.056391858 0.10375126 0.052168854 -0.024820501 -0.0074610133
0.060862128 -0.05874837 -0.0009830503 0.07425143 -0.016960956 0.121413276 -0.033798274 -0.056899592
0.106230855 -0.049053695 0.0070715244 0.06982983 0.100141406 -0.062882215 -0.06527291 0.095435716
-0.1006774 0.06918602 0.081536934 -0.035292834 -0.038941838 0.056929085 -0.04436309 0.1298431
0.07917702 -0.015993014 -0.09741337 -0.043273337 0.013503132 -0.065289475 0.10999275 -0.0892985
0.03061617 0.08090546 0.075821266 -0.055369623 0.11320533 0.11730262 -0.08787399 0.11540308
-0.027119536 0.06765849 0.07886408 0.11756801 0.14420347 -0.029229544 0.07410704 0.005919962
4.231342e-05 0.16298401 0.042222783 -0.000387997 -0.07545055 -0.10008149 0.10948223 0.16524526

lstm.weight_hh_l0 f4 [256, 64]
00000000: 9cf8 88bc 5557 89bd 7ba5 2cbc 54a7 4c3d
00000010: 497d 33bd a252 8fbc 49b6 9abd 1fe3 5dbd
00000020: 65bd 023d f566 41bd 677d b83d edb3 61bd
00000030: ef00 0b3d fb37 4ebd bbe0 c3bd 5225 453c
00000040: 7be5 b73d 28f3 c53d 0eeb c1bd 5cd9 063e
00000050: 3f0b 8f3d 8983 923d f0b0 c0bd b1d6 6f3c
00000060: c8d9 c3bb e85e d13d 9d78 6a3d afee a13d
00000070: ae8c acbd 86ea 1a3d ae49 e7bd 816a ea3d
00000080: 2cde e73b 8107 cc3d 5a2c b63d b36a 0d3e
00000090: cdd5 ce3d 8ad3 bebd ff9f ef3d c746 623d
000000a0: d07a 943d cdbb d73d 4947 d1bd 6ffa 6dbd
000000b0: 9d1d 6a3d f6eb 5c3d 310c b53d fe38 5bbd
000000c0: 9934 5e3c 8af7 e63d 7e54 03bd 055c bcbc
000000d0: dc2e 02be 765e 053d c4de 723d 715e 763c
000000e0: 9d4c 403b b079 d9bc 5bf3 ce3d c251 80bd
000000f0: ba0f e4bd 2db5 9abd 85c2 4b3d c409 23bd
00000100: cd9d 013e 935e 57be 00a5 6bbe cc82 d33d
00000110: 4eda 453e 5588 6bbe 21a4 e93d 4898 703e
00000120: 5571 463e 3c0a 233e f4af 1e3e 5278 c83d
00000130: e3cf 303e f3cd 7cbe 61a8 3e3e 52d3 c9bd
00000140: 547b b1bd 1d48 7a3e d9a8 db3d fb2c 793e
00000150: 1bd2 0c3e 52ea 13be 8941 21be ab36 5cbe
00000160: c7a5 83be e8a4 00be 17c6 843e 858d 4dbe
00000170: 74da 4dbe f9bf 42be fc66 b93d 3576 4a3e
00000180: 9f13 0ebd 8595 0f3e 31fa 43be f0c8 c83d
00000190: 2739 243e 60e0 773e 9059 443e ca4d 293e
000001a0: 0630 71be f082 453e 87de 523e da1d 02be
000001b0: 173f 7cbd 256e 813e 9196 023e a89f 053e
000001c0: 1f94 65be 619a 8e3d 8123 35be 7c5f b33d
000001d0: aa9f 48be 99fc 963d 6b64 9ebd 2204 5fbe
000001e0: 3017 323e 3dc0 093e 6704 653e b793 7f3d
000001f0: 5075 4bbe ee36 013e 6e65 80be e9c2 323e
00000200: 9aa0 e3bd 4089 5dbd c250 d7bd 6b4e 773c
00000210: 702d 37bc 01e9 85bd fd03 953c a6da 813c
00000220: a3ca c73b a8db e93d 6089 c8bd 4d98 173c
00000230: 5fc7 85bc bd86 a3bd 152f 9bbd 260f 46bc
00000240: 4d56 983c 486d acbd 20dc f5bd 9f6d 8d3c
00000250: c8b4 4a3d 1331 883d c298 8b3d 2de8 d0bd
00000260: 4f80 cf3d 2259 d53d b68f 553c 0f97 f7bd
00000270: 11ca a53d 7050 09bd 07d0 89bd 67ad 9dbd
00000280: 9995 ae3d a916 993d a7c0 9ebd 2e7d 4c3d
00000290: d41f d83d 091e f4bb 9c4b c5bd b3fc c03d
000002a0: 8ea7 3dbd 7a76 8c3c 4c51 933d ba38 7f3d
000002b0: 99e3 dc3d ef0b e6bd 6d0b e53a 5801 a13c
000002c0: 0ece 8bbd 4384 023e 17d0 16bd db91 fdbc
000002d0: 9bc4 893d 4c76 bf3c bf8a efbc 272c 8bbd
000002e0: 3d15 e539 c775 d03d 736e 02bd 469f 153d
000002f0: 0417 7bbd 4bc3 dbbd f18a 55bc 133f 14bd
00000300: 18c6 67bc 7bd1 b13d e35c 913d 20af 3b3d
00000310: b890 0c3d 2ac4 a13d 1bd6 b63d 9758 ebbc
00000320: 859b 01bd 087b 083e 4337 a9bc ec3c c2bc
00000330: 8be1 dc3d 3617 ad3d fdda db3d 32d5 8cbd
00000340: fe9a 2ebd 52d0 e93d 93a7 f73d d73c 8ebd
00000350: dce2 f23d 5253 d03d c8b3 ba3d d51f 52bd
00000360: 006f 613d deee b1bd efb0 cb3d 3fff 0bbe
00000370: 60c0 a73b bf2d 26bd e524 8bbd b29d cf3d
00000380: c467 68bd b9f3 853d 279a 81bc f128 ce3c
00000390: 71d1 aabd 7dfe b63d 84d2 c53d dfa6 fd3d
000003a0: 6a3b 42bd e886 a4bc 6626 5f3d f35b 0abe
000003b0: 39fe 933d fa60 86bd c712 19bd adfc df3b
000003c0: 7fb8 07be b309 a3bb 4b38 d6bc 5d71 883d
000003d0: 9e1c abbd a52c 57bd d76e 37bd 66b6 113c
000003e0: 616c 94bd 34a8 99bd 311a a23d 0512 69bd
000003f0: 7f75 c33d c6ea 073d 6815 6abd 00e4 9a3d
-0.016720109 -0.067061104 -0.0105375005 0.049964264 -0.043820653 -0.017495457 -0.075542994 -0.054171678
0.031918902 -0.047217328 0.090082936 -0.05510323 0.033936437 -0.050346356 -0.09564348 0.012032824
0.08979317 0.09665519 -0.09468661 0.13168854 0.06984567 0.071539946 -0.09408748 0.014638589
-0.0059768893 0.1022318 0.057243932 0.079068534 -0.0842527 0.037821315 -0.1129335 0.11446095
0.0070760455 0.09962369 0.08895178 0.13810234 0.10099373 -0.093176916 0.11700439 0.05524328
0.07249987 0.10533867 -0.10218675 -0.05810016 0.057157148 0.053935967 0.08840216 -0.05352115
0.013562345 0.11277683 -0.032063 -0.022993097 -0.12713188 0.032560788 0.059294477 0.015037165
0.002934254 -0.026547283 0.1010501 -0.06265594 -0.11135812 -0.07554088 0.049746055 -0.039804235
0.12657852 -0.21032171 -0.23012161 0.10327682 0.19321558 -0.23001225 0.11408258 0.2349559
0.1937917 0.15921873 0.15496808 0.09788574 0.17266802 -0.24687938 0.18618919 -0.09854759
-0.08666101 0.24441572 0.107255645 0.24333565 0.13752024 -0.14444855 -0.15747656 -0.21505229
-0.25712416 -0.12562907 0.2593238 -0.20073517 -0.20102865 -0.19018544 0.09052846 0.19771655
-0.03468668 0.14021881 -0.19138409 0.09803951 0.16037427 0.24206686 0.1917479 0.1653358
-0.23553476 0.1928823 0.205927 -0.127067 -0.061583605 0.25279346 0.12752749 0.13049185
-0.22419785 0.06963039 -0.17689325 0.087584466 -0.19592157 0.07372398 -0.07733997 -0.2177892
0.17391658 0.1345224 0.2236496 0.06239673 -0.1986897 0.1261861 -0.25077385 0.17457165
-0.11114617 -0.05408597 -0.1051345 0.01509438 -0.011180267 -0.065385826 0.018190378 0.01585133
0.006097154 0.11418849 -0.09791827 0.00925262 -0.01633042 -0.07984684 -0.075773396 -0.012088573
0.018595839 -0.08419281 -0.12004876 0.017264185 0.049488813 0.06649985 0.068162456 -0.10200534
0.10131895 0.10417391 0.013034752 -0.12089359 0.08095182 -0.033523977 -0.06729131 -0.076990895
0.08524627 0.07475025 -0.07751589 0.04992407 0.10552946 -0.0074498695 -0.09633562 0.094231986
-0.04630237 0.017146338 0.071932405 0.062309958 0.10785598 -0.11232745 0.0017474719 0.019653961
-0.06826411 0.12745766 -0.036819544 -0.030953338 0.06726953 0.023371838 -0.029240964 -0.06795531
0.00043694107 0.10178714 -0.031843614 0.036528848 -0.061301246 -0.107306086 -0.0130336145 -0.036192965
-0.01414635 0.08682533 0.07097795 0.04582131 0.034317702 0.078987435 0.08927556 -0.028728766
-0.031642456 0.13328183 -0.020656234 -0.02371069 0.107852064 0.08451693 0.10735128 -0.06876601
-0.04262828 0.11416687 0.12092509 -0.06945198 0.11859676 0.10172142 0.09116322 -0.05129989
0.0550375 -0.086881384 0.09945857 -0.13671587 0.0051193684 -0.04057097 -0.067941464 0.101375
-0.056739584 0.06540627 -0.015820576 0.025166007 -0.08340729 0.089352585 0.09659293 0.12385344
-0.047419943 -0.02008386 0.05447998 -0.13511638 0.072262235 -0.065614656 -0.037371423 0.006835541
-0.13253973 -0.0049755215 -0.02614989 0.06662247 -0.08355068 -0.05253281 -0.04478344 0.008893585
-0.07247234 -0.07502785 0.07915152 -0.05690195 0.09543895 0.03318288 -0.05714932 0.07563019

lstm.bias_ih_l0 f4 [256]
00000000: 99f8 c3bb 4f04 2c3e 3798 70bd eaa0 4d3d
00000010: 4e91 163e 9b03 a13d fee4 403e a162 153e
00000020: 83e2 8c3d cc7a 48bd 6d5e 55bd 96d0 933d
00000030: dce5 b93d 57db 2fbb b84d a5bd a186 6c3c
00000040: 1051 81bb 2668 96bd a673 e93d 0dc6 383c
00000050: be53 41bd 25e1 5dbd 8784 12bd addd aebd
00000060: adb7 c03b 6c3f 0dbc 2277 943d 49b4 c3bb
00000070: fe0e 7c3d 750f d9bd de13 c83d 56f8 aa3d
00000080: 7586 0f3d bb0a 883d a2d8 923b 3128 a3bd
00000090: 1aaa 14bd f398 48bd 59a0 403d affc ad3d
000000a0: 99c1 9abc 7c91 1bbd b544 1c3d 36cd bd3d
000000b0: 4c56 39bd c71e 88bd 8f4b 0a3e d48f b2ba
000000c0: 47a4 3c3d b243 d0bd 3f3d 893d 2a47 ef3d
000000d0: 7d0c 87bd b8e9 7a3d 9506 f33c 564f cfbd
000000e0: 6d79 943d a184 c13c a533 7e3c 767b 033e
000000f0: e675 a8bd dfb2 3a3d fb4b 51bd 021f cebd
00000100: bf94 d03d 8138 a03c 6dd5 1a3d c89b 9a3c
00000110: 8055 c9bd 7827 47bc 0bae 92bd c174 723d
00000120: dcb6 83bd 0546 903d 46c5 3ebd bcd6 5cbc
00000130: d1ed 9dbc 1ac7 a53d bcf9 d33d b329 dc3d
00000140: 013f 6c3d 08cc c73c fde9 013e 0de2 8cbd
00000150: 3faf d3bd 904f 573d 5f9b c33d c59c 793d
00000160: 429e bebc bf1d 4e3d 3c9c c6bd 8d07 a63b
00000170: 9044 973d 7431 45bd db8f 92bd 0d1e b6bc
00000180: ed1e d03d 14bb b23d bf03 5bbd b7cf 80bc
00000190: 29a8 1a3a ca77 313d ef88 dabc 8cc3 da3d
000001a0: cd65 b43d 8a7d 573d f20a b63a 6849 b4bc
000001b0: 64bc 803a 4a1d 4fbd fc52 cdbd ed2f c5bd
000001c0: 2158 cdbd 0a22 ef3d 8b1f b93b 4bc6 afbd
000001d0: adf7 743d bba7 213d c110 033e f9d2 04bd
000001e0: 4835 02be cf4c ac3d f69c c23d 7919 0b3c
000001f0: dfbb c7bd b744 d83d 0c20 923d dece 0cbc
00000200: 639f c83c 8ab3 fe3d 3768 f4bd 53bd 803b
00000210: 76d9 c1bc a0fe 993c 84fe 91bb 4bb2 98bb
00000220: b5d3 4d3c e2be e13d 5364 d9bd efaf 103e
00000230: e038 c63d 5c0f dabc 1a8a eb3d 2974 d73d
00000240: 5ff0 e43d 8af9 423d a43e d5bc be65 cf3d
00000250: 3f73 7dbd 324d a33d 60ee a13d de02 56bd
00000260: ea7b 92bd 9b67 5ebd ba24 e13d 7e6b a5bc
00000270: ae4b df3d 900a b6bd e005 42bc d345 e83c
00000280: bb37 cbbd 248d 96bd bba6 a8bd 9b68 e53d
00000290: 8a4d ce3c 2119 21bd 5d84 f43d 0682 063e
000002a0: 65ec 23bd 05c6 173b 1b26 023e 9b64 efbc
000002b0: 63d0 a9bc 1e4c 8d3d da8e dd3b ebce c33c
000002c0: 87e5 e8bc dd8f da3d 8bf3 d5bd 3a5c 98bd
000002d0: d5ad 6b3c ec29 27bc ef6e 953d 2be6 223d
000002e0: 8fbd 893c 0b91 e03d 8acc 023d 8503 493d
000002f0: bf6c 1bbc 1f8e 45bd f183 b93d 5a7f b5bc
00000300: c4a0 e43c 763a 403d c8bc 003e a10b f73d
00000310: 8d7e 173e 81dd 083e de1d 883d bc57 a3bd
00000320: fa97 9d3d 3193 b4bd 56e5 b9bd 41b7 dcbb
00000330: 69da a43d 6495 013e 476f ed3d eef5 f63d
00000340: d0ed 963d 230a f4bd 65f2 fdbd e228 c2bd
00000350: 6539 c9bd 0038 d93d 4fd9 133d 5f6e dd3c
00000360: f626 df3d 5c4a febc 529f f23d ff83 ee3d
00000370: bbc0 6bbd e36f 9cbc cd20 223d 7cfc abbd
00000380: 71e3 21bd ca8e af3c fb93 a9bd 5ebc 0abb
00000390: 246b 3abc 4f6d d53d 9582 a13d 5c97 8ebd
000003a0: 275e 69bd d082 59bd 8581 6b3d b359 92bd
000003b0: f4fc a23d ab6e 683d 4946 683d 6ca9 4abd
000003c0: 0e8a b03d b62b 293d 9df4 9fbd e35b d43d
000003d0: f828 63bd d98e 9abd 9de9 8c3d 29fe 0abc
000003e0: cd83 f53c 7db5 a43c a81c c2bd 1f23 963d
000003f0: 37b4 d13d 3765 07bd fd76 29bd 4e01 013d
-0.005980563 0.16798519 -0.058738913 0.050202288 0.14703867 0.07862016 0.18837354 0.14588405
0.06879141 -0.048945233 -0.052092005 0.07217519 0.09077045 -0.0026833618 -0.08071464 0.014436395
-0.003946431 -0.073440835 0.11399011 0.011277688 -0.047199003 -0.054169793 -0.03577092 -0.08538375
0.005881271 -0.008621078 0.07249285 -0.0059724194 0.061537735 -0.10598651 0.09769414 0.083481476
0.035040338 0.06642672 0.004481391 -0.0796665 -0.036295034 -0.04897399 0.04702792 0.08495461
-0.018891143 -0.03798054 0.03815146 0.092676565 -0.045248315 -0.06646495 0.13505386 -0.0013623186
0.046055105 -0.10169162 0.06701135 0.11683495 -0.06594179 0.061258048 0.029666224 -0.10122554
0.07249723 0.023622813 0.015515243 0.12840065 -0.08225612 0.04558074 -0.05109785 -0.10064508
0.10184621 0.019558193 0.037801195 0.01887311 -0.09830761 -0.012155406 -0.07162102 0.059193376
-0.06431362 0.07044605 -0.046574853 -0.013478931 -0.019278439 0.08094616 0.103503674 0.10750141
0.057677273 0.024389282 0.12686916 -0.06879053 -0.1033616 0.05256611 0.09551119 0.060940523
-0.023268823 0.050321337 -0.09697768 0.005066818 0.07386124 -0.048142865 -0.071563445 -0.022231126
0.101621486 0.087270886 -0.05347037 -0.015724046 0.00058996916 0.04332713 -0.026676623 0.10681829
0.088084795 0.052609958 0.001388876 -0.02200766 0.000982177 -0.05056504 -0.10025594 -0.09628282
-0.10026575 0.11676414 0.005649512 -0.08582743 0.059806515 0.0394666 0.1279936 -0.03242776
-0.12715638 0.084130876 0.09502594 0.00848996 -0.097526304 0.10559981 0.07135019 -0.008594243
0.024490064 0.12436588 -0.1193394 0.003928819 -0.023663264 0.018798172 -0.0044553895 -0.004659926
0.012562682 0.11022736 -0.106148385 0.14129613 0.09678817 -0.026618652 0.1150095 0.10520203
0.1117866 0.04760126 -0.026030846 0.10126828 -0.061877485 0.07973708 0.079067945 -0.052248828
-0.07152541 -0.054298025 0.10993333 -0.020192858 0.10903107 -0.088887334 -0.011842221 0.028353607
-0.09922739 -0.07351139 -0.08234926 0.112015925 0.025183458 -0.039330605 0.11939309 0.13135538
-0.040020365 0.00231588 0.12709849 -0.029222777 -0.02072925 0.06899284 0.006761414 0.023902377
-0.02842976 0.10671971 -0.10446843 -0.07439466 0.0143847065 -0.010202866 0.072965495 0.039770287
0.016814021 0.10965165 0.031933345 0.049075622 -0.009486376 -0.04823124 0.09058369 -0.022155453
0.02790869 0.046930753 0.12572014 0.12062765 0.14794369 0.13365747 0.06646322 -0.079757184
0.07695003 -0.08817137 -0.090769455 -0.0067357128 0.08049471 0.12654644 0.1159349 0.12058626
0.07369578 -0.11915996 -0.12399749 -0.09480454 -0.098254 0.10606384 0.036095913 0.027030168
0.10896103 -0.031041317 0.11846794 0.1164627 -0.05755685 -0.01909632 0.039582063 -0.08397767
-0.039523546 0.021430392 -0.08280178 -0.0021169404 -0.011378083 0.104212396 0.07886235 -0.06962463
-0.056974556 -0.05310327 0.057496566 -0.07146015 0.07958403 0.056746166 0.056707654 -0.04947798
0.08620082 0.04130145 -0.07810328 0.103690885 -0.055458993 -0.07546777 0.06880496 -0.008483448
0.029970074 0.020106072 -0.09478122 0.073309176 0.102394514 -0.03305551 -0.04137324 0.031495385

lstm.bias_hh_l0 f4 [256]
00000000: 0293 bbbd add6 8d3d 1130 50bd 3aee be3d
00000010: 6c96 4e3e e213 483d f2d8 f73d 4176 913d
00000020: afc7 ef3d 73f3 e43d 9c45 0ebd 58c1 fc3d
00000030: 7d89 9abd 822d 273e 3733 13bd 2543 e5bb
00000040: 51cc 0e3e 8424 aebb 1989 e6bd bb0f ad3d
00000050: cb97 113e bf30 873d c80b b13d 9674 14bc
00000060: d613 1e3c 0300 083e 119e 02bd cb09 77b9
00000070: 20e4 30bd afda 663d 9af4 a73d 9b60 da3d
00000080: 3919 04be 4fe9 4fbd 51dd 963d 9946 c7bd
00000090: f3eb e73d 68bf e03d 8242 c3bd 33dd fab9
000000a0: 70c9 9ebd 68e4 b7bb ceea f43c b83f ac3d
000000b0: 6f42 163d fc92 dcbd b66f bdbb a8e3 e43d
000000c0: b1ec 933c 9c1d d23d 48ed 473d 0d5d 0f3e
000000d0: 186d 993d ffd4 913c dd60 f53c 7118 ac3c
000000e0: 5775 c03d f486 fabc a676 e8bd 4080 88bc
000000f0: 7b43 acbd cc2e 7fbd d0b4 a43d 35ab a93d
00000100: bae1 943d acea de3c 48d5 663d 81c2 0fbd
00000110: ee43 c6bd f788 9ebc 2556 ca3d 84fb d93d
00000120: 8f06 8a3d adc4 62bd 865d cb3b 8745 563d
00000130: 9c70 523d 24fb 95bd 9359 3abd 083e aabd
00000140: 8edc 793d 333b 61bd c407 e33c 5c8a 853c
00000150: 1a7e 4b3d b9ec 43bd 3ed0 9ebd 6883 073e
00000160: 0666 073d b89e e53c 3b1e 013e 1c35 2dbd
00000170: 358f a5bd 69d9 de3d 1b4d c2bc a95c 8a3d
00000180: 1dd1 cabd 8e9e 7dbd 9e67 ed3c fcdc 76bb
00000190: 0cd7 5dbd 0a6b b13d 823d c0bd f7ee 2dbd
000001a0: 4c7c a2bd b378 a63c 4793 e23d 4e54 4d3d
000001b0: d20c 24bd 6685 98bd bec5 6bbd 3c2c e23d
000001c0: f9db b1bd efbd dbbc 4f12 ff3d 398a f0bd
000001d0: 4cf2 88bd 0e6a ab3d 15bd e13d 5e4d 68bd
000001e0: 376a d4bd 7751 d03d f1e9 58bd c949 0fbd
000001f0: a808 adbb 814b 9a3b 3ef1 033e a5d7 dabd
00000200: 2241 6cbd 5bd6 b0bd 02ff a7bd 00a6 9bbd
00000210: 9c92 1bbc 255d e2bd 861f 82bd 0531 b8bc
00000220: 8c72 563d 1b49 e73c c16b ba3d 6d3a b3bd
00000230: f6a9 1fbd b5f6 2bbd 7d54 bd3d 36a6 0e3d
00000240: 7b48 16bd 32b1 153d fbd2 2f3d 97a6 013e
00000250: ac73 cc3d 0b2f 263c a932 3a3d fc1a b03d
00000260: 66d0 8ebb 5f5e a8bd d47c 5a3d 6051 e1bd
00000270: ebca 9e3c a149 82bd 57c3 98bc f95d 81bb
00000280: 6e30 82bd 7f36 e93d fa5e 52bd 35c1 af3d
00000290: 394d 2e3d 7c0b d03d 41bf 8c3c 2107 7bbd
000002a0: a12d cebd d2d5 be3d 9065 81bd 056c 6fbd
000002b0: 824c a9bd 9620 1d3c f2aa dd3d e05f 43bc
000002c0: ddc1 f4bd ad8c d73d 54cd f4bc 249b 213d
000002d0: eb2f 783c e150 cd3c 1b66 fd3c 77ca 7cbd
000002e0: 8310 bcbd 41c4 803d 9b5e ad3c ed85 293c
000002f0: 4841 edbc 35cb ac3d cdb5 bc3b 5d8b e23c
00000300: 7ed7 bebc 6bd6 4a3e 1859 ccbd a101 233d
00000310: 8c9b 103d f530 fc3d cf23 df3c 8e4c acbc
00000320: 4e6b cbbd f737 d4bd 3b02 eebc d017 f53d
00000330: 3ef4 efbc dba4 8abd 0028 edbd 6a0a 28bb
00000340: f0cb 8e3a f1a5 cbbd 4632 ad3d 0792 e43d
00000350: 633a 373c 385c 6a3d 298e c0bc 07f6 543d
00000360: b352 6d3b 7c63 c83d b3cb dfbd b246 a2bc
00000370: c252 99bd d8d0 2d3d 3b62 9c3d 0f10 663b
00000380: 3753 48bd 8411 b6bd fc50 1d3d cfa1 c93a
00000390: 13f4 f0bd 9f88 c4bc 863d 0e3e 2e5d 663d
000003a0: 275b b83d bb38 77bd df4c 73bd a5a4 ca3d
000003b0: 583e e53c e535 0b3d e742 a1bd 78e7 3ebd
000003c0: 3e8f ed3d 4e44 933c 8f57 ef3d ddce c33d
000003d0: 60e4 d03d 0da2 25bd 3df0 09bd 7be9 f53d
000003e0: 253c 483c 328c e23d 7fb9 e83d 1c6f b5bd
000003f0: 26e3 2bbd 5859 c8bc 1de7 763d 792c ce3d
-0.09158899 0.06925712 -0.05082709 0.09322782 0.20174569 0.048847087 0.12101926 0.07102633
0.117080085 0.11179247 -0.034734353 0.12341565 -0.07545755 0.16325954 -0.035937514 -0.0069965296
0.13945128 -0.0053144116 -0.11256618 0.08450266 0.1421806 0.066010945 0.08644825 -0.009060999
0.009648284 0.13281254 -0.031889025 -0.00023559404 -0.043186307 0.056360897 0.08200951 0.10662957
-0.12900247 -0.05075961 0.073664315 -0.09730262 0.113243006 0.10974008 -0.0953417 -0.00047848522
-0.07753265 -0.005611945 0.02989712 0.08410591 0.03668445 -0.107702225 -0.0057811392 0.111762345
0.0180572 0.10259554 0.048810273 0.1400034 0.07491511 0.01780176 0.029953415 0.021007748
0.09397381 -0.030581929 -0.113507554 -0.016662717 -0.084113084 -0.06230049 0.080423 0.08284608
0.072696164 0.02721151 0.056355745 -0.035097603 -0.09680925 -0.01935242 0.09879712 0.10643676
0.06739532 -0.055363346 0.006206217 0.0523124 0.051376924 -0.07323292 -0.04549558 -0.08312613
0.061001353 -0.054988097 0.027713664 0.016301326 0.049680807 -0.04783318 -0.07754563 0.13233721
0.03305628 0.028029785 0.12609188 -0.042286977 -0.08083955 0.108813114 -0.023718407 0.06755955
-0.099031664 -0.061918788 0.028980073 -0.0037668338 -0.054160163 0.08662994 -0.09386732 -0.042464223
-0.07933864 0.020321226 0.11063247 0.050129227 -0.04005129 -0.07447319 -0.05756163 0.11043593
-0.086845346 -0.026823966 0.12454664 -0.11745114 -0.066868395 0.08369838 0.11022393 -0.056714408
-0.103718214 0.10171788 -0.05295748 -0.034982476 -0.005280573 0.004708708 0.12884995 -0.10685662
-0.057679303 -0.08634635 -0.08202936 -0.07600021 -0.009495404 -0.11052922 -0.06353669 -0.022484312
0.052355334 0.028233102 0.09102584 -0.08751378 -0.038980447 -0.041983325 0.092446305 0.03482648
-0.036690217 0.03654594 0.042925816 0.12661205 0.09983 0.010143052 0.04545847 0.08598897
-0.004358339 -0.08221125 0.0533417 -0.11001849 0.019383868 -0.063617 -0.018647833 -0.00394797
-0.063568935 0.113873474 -0.051360108 0.08581773 0.042554114 0.101584405 0.01718104 -0.061286096
-0.10067297 0.09318127 -0.063182 -0.058452625 -0.08266546 0.009590289 0.10823621 -0.011924714
-0.11951039 0.10524879 -0.029883064 0.039454594 0.015148143 0.02506298 0.030932477 -0.061716523
-0.09182837 0.062874325 0.021163275 0.010346872 -0.028961793 0.08437196 0.005758977 0.027654344
-0.023296114 0.19808356 -0.09977931 0.039796475 0.03530459 0.12314025 0.027238755 -0.021032598
-0.09932576 -0.10362237 -0.029053798 0.119674325 -0.029291268 -0.06769725 -0.11579895 -0.0025640973
0.0010894518 -0.0994376 0.084568545 0.11160665 0.011183354 0.057216853 -0.023505287 0.051992442
0.0036212623 0.097846 -0.109275244 -0.0198091 -0.07486488 0.042435497 0.076359235 0.0035104787
-0.048907485 -0.088900596 0.03840731 0.0015383306 -0.117653035 -0.023990927 0.13890657 0.056241207
0.09001761 -0.060356837 -0.059399482 0.09894685 0.02798383 0.033986945 -0.07874089 -0.046607465
0.11599587 0.017976906 0.11686622 0.095609404 0.10199809 -0.040437747 -0.033676375 0.120074235
0.012221371 0.110618964 0.113635056 -0.08859083 -0.041964673 -0.024456665 0.060279 0.10067076

dense.weight f4 [4, 64]
00000000: d129 0e3d faf2 e8bd 4ce0 ee3c 371e de3c
00000010: bc47 7fbd 3d9c e2bd 0963 11bb 6229 043e
00000020: 02fb fe3c 0dd9 0c3e 83b0 de3d f651 24bd
00000030: 7044 c63d b72f 80bc 6969 45bd 913c 05be
00000040: 5266 52bd b522 123e 9bfc cb3d d492 983d
00000050: b28e 4f3d 110e fbbd c0a0 323d 7783 43be
00000060: 0e52 cbbd 533d 20bd 3689 ce3d 3572 09bd
00000070: bf8b fdbd eaca 8ebd 73f7 203d 6e33 7f3d
00000080: 99dd 2dbd b1be 9b3d 679e e03b a4d3 283d
00000090: c5d7 c33d ed04 a63d 34ea 143b a868 b93c
000000a0: f8ac 6f3b 16ad 083e 69d6 0fbd c4a5 73bd
000000b0: eec2 b03d b61c cfbc 4b06 b33c 9e41 43bd
000000c0: c959 07bd 8e0c f73d 98b1 b7bd dddc dc3d
000000d0: 8e50 133d 7b2d 3cbd be1e bebc fdf4 0fbe
000000e0: 7779 bc3d fb24 203d 0f32 c73d dab9 463d
000000f0: 69c3 12be c592 fc3d ff6b cbbc d167 bd3d
00000100: e669 853d 3f9b 333d 9fc6 b4bd 840f 073e
00000110: 109c 613e 3679 013e c64a a73d c8c9 a1bb
00000120: 7572 2d3c 06e0 30bd ffcb 603d d8bf 863c
00000130: 9f44 de3d 7955 fbbc f30e 9cbb 7e33 a9bd
00000140: 2cf9 1ebd 5e45 3a3d be14 4e3d 1218 a93d
00000150: 209c 663c b224 9d3d 5518 95bd a157 c7bb
00000160: 4f31 eebd 573e 8d3b 834e dd3d 6cc9 12bd
00000170: da2d 6dbc 7214 ffbd 7578 e23d 5698 763d
00000180: 86ea 953d 4c8e 393d 6555 8cbd 3462 e1bc
00000190: 8aa2 a9bd fb22 f43d 55a5 063d 2e34 953c
000001a0: 1278 90bd 03ae 78bd ed68 0d3e 3981 aabd
000001b0: 88f8 ffbd 09f0 f13c bcdb 6e3d ba88 0b3e
000001c0: 297e d1bd f2b3 9d3d e64e 053d 379b e13d
000001d0: 0681 85bd 5315 46ba f08c f5bd bd33 9c3d
000001e0: 67d5 8f3c 6383 b13d 82cd c33d 0aa2 063d
000001f0: a148 b2bc 2065 94bb f900 75bd de5b 3dbd
00000200: e8b2 82bc dbca 82be f877 99bd 9297 073e
00000210: 37cf 03be 2027 d1bd d6da 23be a57c cb3d
00000220: 05f7 cc3d bc38 dc3d 4171 b1bc aa90 843d
00000230: 9e96 573d 2013 88bd 0a95 b6bd bf59 a4bd
00000240: 2389 2ebe 6da5 5bbd 5a88 b03d 40a1 ca3d
00000250: 6a25 b73d c2da 3a3d 741f ecbd 91d6 983c
00000260: 6181 f2bd 8865 d6b9 d714 e73d a1ac 353c
00000270: ebc3 8e3c 86a0 febc 36ec 103d c479 c03d
00000280: 1934 fabd 43bf 97bd ff30 f5bd 2724 f63d
00000290: 407d 64bd 17ca cc3b 9396 893d bf76 4d3d
000002a0: e428 b7bd d926 06bd 83ab 1abb fb13 8fbd
000002b0: af89 31bd 6993 bb3d 73ea 003e b29e d73c
000002c0: 2e83 573d 9e3d 593d 3cbb 6abd 1b75 b73d
000002d0: 0414 75bd 4396 87bd 0257 c5bd 36c7 09bc
000002e0: 24c0 653c 0c8b 1f3d d205 64bd 7e35 843c
000002f0: ccca 08be 8583 9b3d 96c7 023c 0bfa a1bd
00000300: a33c 283d b44a 5dbd 067d c8bd 098d 6bbb
00000310: 4332 d8bd c0c7 173d d4a6 a0bd e0b4 8a3d
00000320: 3f1f 0a3e a3a7 c03d 7f58 0a3e c4f1 d33c
00000330: 47e6 adbc 5f33 96bd c262 243d 840c cbbd
00000340: 7bf0 0bbe a192 5bbd 4434 3b3d 4b78 473c
00000350: 2c81 8d3d 1aa2 03bd a157 b5bd 7008 38bc
00000360: 3a59 19bd 6b93 8abd 2887 f93d 3ef4 823c
00000370: 9747 ccbd 6e24 e3bd 277f 8e3d 113d f23d
00000380: 0ff3 1f3c 3247 b43d c581 1c3c 1ec8 813d
00000390: 5ade 923d c0f5 dcbc faf7 c63d 388b a23d
000003a0: f785 91bb 798c b63d b9e8 60ba bf33 a6bd
000003b0: 6b0b 7c3c d30e 713c 96db db3d 553b 32bd
000003c0: f201 e3bd af0c a83d 3d0f bf3b e657 dcbd
000003d0: ce49 bdbd bc43 f33d d3d6 c9bd 439f 0cbe
000003e0: 2069 8b3d ad3d 203d 8e18 b7bd fd9f 933d
000003f0: 59dd d0bd 4614 5e3d 2fa8 2bbd 8777 e33d
0.034707848 -0.11374469 0.029159687 0.027114017 -0.06232427 -0.11064956 -0.0022184274 0.12906411
0.03112555 0.13754673 0.10873511 -0.040117227 0.09681022 -0.015647752 -0.04819623 -0.13011386
-0.05136711 0.14271052 0.0996029 0.0744988 0.050673194 -0.12258542 0.043610334 -0.19093119
-0.0992776 -0.039120983 0.10084765 -0.033556182 -0.1238017 -0.069722965 0.039298486 0.062304907
-0.04244766 0.07604731 0.0068548205 0.04121746 0.09562639 0.08106408 0.0022722604 0.022632912
0.0036571603 0.13347277 -0.035116587 -0.05948426 0.0863093 -0.025282245 0.021853587 -0.04767
-0.03304461 0.120629415 -0.0896942 0.10784314 0.035965495 -0.04594181 -0.023208018 -0.140583
0.09202855 0.039097767 0.09726345 0.048517086 -0.14332356 0.123326816 -0.02483177 0.09248317
0.06514339 0.043849226 -0.088269465 0.13189512 0.2203219 0.12643895 0.08168559 -0.0049373843
0.010586371 -0.043182395 0.054882046 0.0164489 0.10852932 -0.030680405 -0.0047625243 -0.082617745
-0.038811848 0.04547631 0.05031275 0.08256544 0.014075309 0.07673015 -0.072800316 -0.006083444
-0.116304986 0.00431041 0.108059905 -0.035836622 -0.014476264 -0.124550715 0.110581316 0.060203873
0.073201224 0.04530172 -0.06852225 -0.027512647 -0.08282955 0.119207345 0.032872517 0.018213358
-0.070541516 -0.060712826 0.13809557 -0.083254285 -0.124985754 0.029533403 0.058315024 0.13626376
-0.10229141 0.077003375 0.032545947 0.11015933 -0.0651875 -0.0007556278 -0.11989772 0.07627056
0.017557813 0.08667638 0.09560682 0.032869376 -0.021763148 -0.0045286566 -0.05981538 -0.04623019
-0.01595445 -0.2554539 -0.07493585 0.13241413 -0.12872015 -0.102125406 -0.16001448 0.099358834
0.10008053 0.10753009 -0.021660449 0.06472905 0.052633874 -0.06644273 -0.08915146 -0.0802493
-0.17044501 -0.05362456 0.08619757 0.09894037 0.08942683 0.04561878 -0.11529437 0.018657
-0.11841083 -0.00040892907 0.11283272 0.011088521 0.017427405 -0.031082403 0.03538152 0.09398225
-0.12216968 -0.07409527 -0.11972236 0.12018614 -0.05578351 0.006249677 0.06718173 0.050162073
-0.08943346 -0.03275189 -0.0023600764 -0.06986233 -0.043344196 0.09158976 0.12589435 0.026320789
0.052615337 0.05303728 -0.057307467 0.08957883 -0.05983354 -0.06620457 -0.09635736 -0.008409312
0.014022861 0.038950965 -0.055669613 0.016138788 -0.13358611 0.07593445 0.007982155 -0.0790902
0.041073453 -0.05402632 -0.09789471 -0.0035942218 -0.10556462 0.03705573 -0.0784432 0.067727804
0.13488482 0.09406974 0.13510321 0.025872119 -0.021227969 -0.07334017 0.040133245 -0.099144965
-0.13665955 -0.053606633 0.04570414 0.012174676 0.06909403 -0.032137014 -0.088546045 -0.01123248
-0.03743861 -0.06766399 0.12183982 0.015985604 -0.09974592 -0.11090933 0.06957846 0.11828054
0.0097625395 0.08802642 0.009552424 0.063369974 0.071713164 -0.026972651 0.097152665 0.0793671
-0.0044410187 0.08913512 -0.00085796 -0.081153385 0.015383582 0.014713007 0.10735242 -0.043513615
-0.110843554 0.08205544 0.005830674 -0.10758953 -0.09242593 0.11878154 -0.098554276 -0.13732629
0.068071604 0.03912132 -0.0894023 0.0720825 -0.10198469 0.054218553 -0.04190844 0.111067824

dense.bias f4 [4]
00000000: 4b45 553d cbf3 fa3d f6b1 273d 7832 453d
0.052068036 0.12253531 0.0409412 0.048143834
