trained_model/seq_to_1_lstm_glass_anomaly.pth (torch, 75040 bytes, 6 tensors)

lstm.weight_ih_l0 f4 [256, 4]
0	0x3e156df8	0.14592731
1	0xbd8d5b32	-0.0690216
2	0xbda46033	-0.08026161
3	0x3ce5b93d	0.02804243
4	0xbcce2dca	-0.025168318
5	0x3dd7fe73	0.10546579
6	0xbcea6d29	-0.028616505
7	0x3c022838	0.007944159
8	0x3ddc3af3	0.10753431
9	0x3e2d8ffc	0.16949457
10	0xbe11dece	-0.1424515
11	0x3cc70944	0.02429641
12	0x3dc0d945	0.09416441
13	0x3caf2a3e	0.021382447
14	0x3e5dbd2c	0.21654195
15	0x3dab831c	0.083746165
16	0xbc857f51	-0.01629606
17	0x3cb103f6	0.021608334
18	0xbe37ea1d	-0.17960401
19	0x3cf1b4cb	0.029505154
20	0xbc1d5215	-0.009602089
21	0xbbc125f2	-0.005894416
22	0x3e2b2012	0.16711453
23	0x3d8707da	0.065932944
24	0x3d0a5246	0.03376987
25	0xbd359a45	-0.044336576
26	0xbddd968d	-0.10819731
27	0x3c8405a0	0.016115963
28	0xbd9e3d7c	-0.07726571
29	0x3dad80da	0.08471842
30	0xbd8774b9	-0.0661406
31	0x3d5e0d0b	0.054211657
32	0x3e24b8f1	0.16086175
33	0x3df9807f	0.12182712
34	0x3e215478	0.15754879
35	0x3d870a91	0.06593812
36	0x3a524d3d	0.00080223737
37	0x3dcdc1fd	0.10046766
38	0x3e21b665	0.15792234
39	0x3dcfc46b	0.10144886
40	0xbcb89357	-0.022531195
41	0xbd1d40bb	-0.03839181
42	0xbc88df5f	-0.016708074
43	0x3da5ceb6	0.080960676
44	0xbd9922d5	-0.07477347
45	0x3ddf4eb4	0.10903683
46	0xbbd36ec0	-0.0064524114
47	0x3c904ab4	0.017613746
48	0x3e00e3d4	0.1258691
49	0xbb835f19	-0.0040091393
50	0x3dd178fa	0.102281526
51	0x3dad57a2	0.0846398
52	0x3cc8d1bb	0.02451407
53	0x3ca4f7de	0.020137724
54	0x3e368b92	0.1782668
55	0x3dd89cd9	0.10576791
56	0xbcb6ca70	-0.022313327
57	0xbd7875c9	-0.060659204
58	0x3d0190a0	0.031632066
59	0xbddd0eea	-0.1079386
60	0x3e84f97d	0.25971594
61	0xbb170e20	-0.002304919
62	0x3e2fcb7e	0.1716747
63	0x3d8d86c0	0.06910467
64	0xbce7d00c	-0.028297447
65	0x3dbeee1a	0.09322758
66	0x3e38093f	0.17972277
67	0xbcb75fad	-0.022384489
68	0x3e2aeebf	0.16692637
69	0xbdd68f8e	-0.104766
70	0x3e569d84	0.20958525
71	0x3d4cbc53	0.049984287
72	0x3d706d56	0.05869802
73	0x3e086025	0.13317926
74	0xbcc335ff	-0.023829458
75	0x3e071f66	0.13195571
76	0x3db11dcf	0.08648264
77	0x3bfdbc66	0.007743406
78	0x3e27628f	0.16346191
79	0xbe0e0227	-0.13868009
80	0x3dab2139	0.08355946
81	0x3e1f8386	0.15577516
82	0x3c8c33df	0.017114578
83	0xbdadce57	-0.08486622
84	0x3de0e723	0.10981586
85	0x3d455241	0.048174147
86	0x3dcf6696	0.101269886
87	0x3d4afd9e	0.049558274
88	0x3daecce4	0.085351735
89	0x3ce0c686	0.027438413
90	0x3e0a0079	0.13476743
91	0xbd4d0171	-0.050050203
92	0x3b9471b3	0.0045301556
93	0xbde0ab2e	-0.1097015
94	0x3e0311fe	0.12799832
95	0xbdd28991	-0.10280145
96	0x3e18ce3e	0.14922425
97	0xbca3775b	-0.019954374
98	0x3e31560e	0.17317984
99	0xbd703d75	-0.05865236
100	0xbca82dd2	-0.020529661
101	0x3e3354b3	0.17512779
102	0x3d23b038	0.039962977
103	0xbd7d5854	-0.061851814
104	0xbdc0db1a	-0.0941679
105	0x3ba0f90e	0.004912502
106	0x3d93e739	0.072218366
107	0x3e4a7cea	0.19774213
108	0xbd6512c6	-0.055926107
109	0x3e246000	0.16052246
110	0x3e0d17e4	0.13778645
111	0xbdab310f	-0.083589666
112	0x3e39e1f8	0.18152606
113	0xbd02f33c	-0.031970248
114	0x3d649866	0.0558094
115	0x3d8978cb	0.067124926
116	0xbb91001b	-0.0044250614
117	0x3bd58a36	0.00651672
118	0xbd8c47d3	-0.06849637
119	0x3e145fa9	0.14489616
120	0x3819534f	3.655563e-05
121	0x3dac69a2	0.08418585
122	0xbda59ae1	-0.080861814
123	0xbcb4f957	-0.02209155
124	0xbd6a3748	-0.057181627
125	0xbe1b4c9f	-0.15165947
126	0x3dd081a1	0.10180975
127	0xbcbcbada	-0.023038317
128	0xbccf0817	-0.025272412
129	0x3cf7eaee	0.03026339
130	0xbd5e5559	-0.054280613
131	0x3b23591c	0.002492494
132	0x3e160702	0.14651111
133	0x3db6d5a2	0.08927466
134	0x3d9d3a53	0.0767714
135	0x3d18c96d	0.03730147
136	0x3e1a8021	0.1508794
137	0x3d9d9a35	0.07695428
138	0x3e1d2a90	0.15348268
139	0x3dfc15c8	0.12308842
140	0x3d74721d	0.05967914
141	0xbd3742f0	-0.04474157
142	0xbcad1da1	-0.021132292
143	0x3df4ff25	0.119627275
144	0xbda4da1d	-0.08049414
145	0x3de5c489	0.11219127
146	0x3dea2539	0.11432881
147	0x3da00cb6	0.078149244
148	0x3da91b85	0.08257202
149	0x3db5a131	0.088686354
150	0xbcf6ec7a	-0.030142058
151	0xbcec1dbc	-0.028822772
152	0x3df066fc	0.11738393
153	0xbd04090b	-0.032235187
154	0xbdb964e8	-0.090524495
155	0x3df31fdf	0.11871313
156	0xbaecb5eb	-0.0018059587
157	0x3d5b542c	0.05354707
158	0x3dcca87e	0.09993075
159	0x3dbcf4aa	0.092263535
160	0xbd8feb1f	-0.07027268
161	0x3d6e3723	0.05815805
162	0xbca6d295	-0.020364085
163	0xbd7c32e7	-0.06157198
164	0xbd97d519	-0.07413692
165	0x3da290e9	0.07937796
166	0xbcb95112	-0.022621665
167	0x3d79e35f	0.061007854
168	0x3e2ba764	0.16763073
169	0xbde8cb7f	-0.11366939
170	0xbd64c95a	-0.055856086
171	0xbccc9792	-0.024974618
172	0x3dc1fda8	0.09472209
173	0xbc4c6979	-0.0124763185
174	0x3bc42505	0.0059858584
175	0xbd1a6de7	-0.037702467
176	0xbaa5b43e	-0.0012642217
177	0x3de3ba2d	0.111194946
178	0x3cd9f5e2	0.026606504
179	0x3c3c516a	0.01149402
180	0xbc01116d	-0.00787769
181	0xbd96e09e	-0.07367061
182	0xbdb820af	-0.08990609
183	0x3d7a78e6	0.061150454
184	0xbe0f2a34	-0.13980943
185	0xbe34cb2d	-0.1765563
186	0xbd433261	-0.047655467
187	0x3c0cac80	0.008586049
188	0x3cf4d7df	0.029888092
189	0x3e2636c0	0.16231823
190	0xbdc05e10	-0.09392941
191	0x3e3be593	0.18349294
192	0x3db2ed09	0.08736617
193	0x3d2bbb71	0.041926805
194	0xbcee1eb6	-0.029067378
195	0xbcb2c50c	-0.021822475
196	0x3d313ab8	0.04326889
197	0xbdbf1501	-0.09330178
198	0x3e18a74d	0.1490757
199	0x3dac28a0	0.08406186
200	0x3cce58d9	0.02518885
201	0xbb31ce46	-0.0027131005
202	0x3d473df6	0.048643075
203	0xbdb8e528	-0.09028083
204	0x3dc60d8a	0.09670551
205	0xbd6dc3ec	-0.058048174
206	0xbcbe4237	-0.023224933
207	0xbc8df8a9	-0.017330484
208	0x3db66851	0.089066155
209	0x3d610702	0.054938324
210	0x3e1188fd	0.14212413
211	0xbd14fb65	-0.03637256
212	0x3d94b70b	0.07261475
213	0x3ba80872	0.00512796
214	0x3e533c46	0.20628461
215	0x3df85a7a	0.12126632
216	0xbe18f67c	-0.14937776
217	0x3d3a32cd	0.045458604
218	0x3d50c0d4	0.050965145
219	0xbdf3da48	-0.11906868
220	0x3d503c13	0.05083854
221	0x3e351d06	0.17686853
222	0xbd5de670	-0.05417484
223	0x3d43f784	0.04784347
224	0xbd53c5b1	-0.051702205
225	0x3dd56120	0.10418916
226	0x3d292a18	0.04129991
227	0xbbc1d240	-0.0059149563
228	0x3e10f211	0.14154841
229	0xbbd42c84	-0.0064750332
230	0x3e2a6fbc	0.16644186
231	0x3e079eb2	0.13244131
232	0xbd2f8c49	-0.042858396
233	0x3e37142b	0.17878787
234	0x3c3e0ef1	0.011600242
235	0xbdcd7d5d	-0.10033677
236	0x3dfe4759	0.12415952
237	0x3d91d340	0.07120371
238	0xbd796641	-0.060888533
239	0xbd92f62e	-0.07175861
240	0xbd91aaa9	-0.07112629
241	0x3db959cd	0.09050331
242	0x3d6f5dc9	0.05843905
243	0x3cb42938	0.02199231
244	0x3d00bf3c	0.031432375
245	0x3d0798bf	0.033104654
246	0xbdaf1351	-0.08548606
247	0x3dd850bf	0.10562276
248	0x3def84b1	0.11695231
249	0xbd55bac4	-0.052180067
250	0x3dbde59d	0.09272311
251	0x3c44bc57	0.012007794
252	0x3c872367	0.016496373
253	0x3de1fdb2	0.11034717
254	0x3dce6655	0.10078112
255	0x3d049c3a	0.03237555

lstm.weight_hh_l0 f4 [256, 64]
0	0xbdea0822	-0.114273325
1	0x3e00512f	0.12530969
2	0xbe050af3	-0.12992458
3	0x3d3489b3	0.044076633
4	0xbd0eb4c4	-0.03484036
5	0x3cf60006	0.030029308
6	0x3d12db9c	0.035853967
7	0x3de941df	0.11389517
8	0xb98249c6	-0.00024850498
9	0xbd893ec9	-0.067014284
10	0x3dd664db	0.104684554
11	0x3ccad638	0.02476035
12	0xbdce7ec6	-0.10082774
13	0xbc33c340	-0.010971844
14	0x3d2ad8a9	0.04171053
15	0x3dd375cc	0.10325202
16	0xbda90939	-0.08253712
17	0x3be49298	0.006975483
18	0x3e1074ef	0.14107107
19	0xbbf5c011	-0.0074997027
20	0xbcc66ba9	-0.024221258
21	0xbc9333c9	-0.017969029
22	0x3d466182	0.048432834
23	0xbce98c1c	-0.028509192
24	0xbd7940a6	-0.06085267
25	0xbce8fabb	-0.02843987
26	0x3d42cd0c	0.04755883
27	0x3c745adc	0.014914241
28	0xbda541bd	-0.08069179
29	0x3d932e45	0.071865596
30	0x3d3642b3	0.044497203
31	0xbdd44f7b	-0.10366722
32	0xbd96d826	-0.07365446
33	0x3d7732fe	0.060351364
34	0x3d75f656	0.060049377
35	0xbde3244c	-0.110909075
36	0x3de8310b	0.11337479
37	0xbc7a2c40	-0.015269339
38	0xbdf80f82	-0.12112333
39	0x3d817163	0.06320455
40	0xbbdf9efa	-0.0068243714
41	0x3cc67ea5	0.02423031
42	0xbd9eef34	-0.07760468
43	0x3ce2c540	0.027681947
44	0x3dc2d11c	0.09512541
45	0xbda7f2d1	-0.082006104
46	0x3d62baa7	0.055353787
47	0x3ce09d8e	0.027418878
48	0xbc86048b	-0.016359588
49	0xbd984823	-0.07435634
50	0x3e119874	0.14218313
51	0x3c1b3672	0.00947343
52	0xbe0ea693	-0.1393073
53	0xbdac0ad9	-0.084005065
54	0xbde8d095	-0.11367909
55	0x3d9b41d9	0.07580919
56	0x3ca9aad9	0.02071135
57	0xbcb027b5	-0.021503309
58	0xbda3a783	-0.07990935
59	0xbd76e0bc	-0.060272917
60	0x3c0781ba	0.008270675
61	0xbc80a273	-0.015702462
62	0xbd1f71cb	-0.03892688
63	0xbca7272e	-0.020404425
64	0xbde308d4	-0.11085668
65	0xbdb16744	-0.086622745
66	0xbdc2183c	-0.094772786
67	0xbd887739	-0.06663365
68	0x3c9c3635	0.019068817
69	0x3dc09c68	0.09404832
70	0x3d55cdbb	0.052198153
71	0x3d25ca03	0.040475857
72	0xbcf559d3	-0.029950058
73	0x3dbc32a3	0.09189346
74	0xbcd94550	-0.026522309
75	0xbdd99f26	-0.10626058
76	0xbc56af92	-0.013103383
77	0xbde0e82f	-0.109817855
78	0x3d98d16d	0.0746182
79	0xbdbb7e3e	-0.09154938
80	0xbd7e8b33	-0.06214447
81	0x3d91f88a	0.07127483
82	0xbcb9aa89	-0.022664325
83	0xbdcf3c9a	-0.10118981
84	0xbd21c7df	-0.039497253
85	0x3d2ac2d4	0.04168971
86	0x3dac9c7c	0.084282845
87	0xbd206622	-0.0391599
88	0x3ca10f6a	0.01966067
89	0xbc27ce99	-0.010242128
90	0x3da8efe6	0.08248882
91	0x3d1d282a	0.03836838
92	0x3d9ddb17	0.07707804
93	0x3dff1c56	0.124565765
94	0xbcd1ead0	-0.025624663
95	0xbdb50f16	-0.08840768
96	0xbd36ac0b	-0.044597667
97	0xbdd0a70a	-0.1018811
98	0xbc9ae452	-0.0189077
99	0xbbb8f98e	-0.0056449836
100	0xbd9fdbc5	-0.078055896
101	0x3d0853cc	0.03328304
102	0xbc912e6c	-0.017722331
103	0x3dd13776	0.102156565
104	0xbdd2c0a0	-0.102906466
105	0xbd7dffdc	-0.062011585
106	0xbdbab157	-0.09115856
107	0x3af20c87	0.0018466868
108	0xbca71961	-0.020397844
109	0x3d8a6503	0.06757548
110	0xbc9424a4	-0.018083878
111	0x3d778395	0.06042822
112	0x3dea8c41	0.114525326
113	0x3cec84ec	0.028871976
114	0x3d94e0fc	0.07269475
115	0x3c90bbfd	0.017667765
116	0xbdd705d2	-0.10499157
117	0x3d3a5403	0.045490276
118	0xbc73a8f6	-0.014871826
119	0x3d4abe99	0.049498174
120	0x3dcee500	0.10102272
121	0x3bf9ffc0	0.0076293647
122	0xbddad8ff	-0.1068592
123	0xbdaad948	-0.08342224
124	0x3db52694	0.08845249
125	0xbdd17208	-0.10226828
126	0xbdbcdbff	-0.092216484
127	0x3debb5c3	0.11509278
128	0xbe13be49	-0.14428057
129	0xbc63ae5a	-0.013896549
130	0xbda4463c	-0.08021209
131	0x3ccb913f	0.024849532
132	0xbcde1dde	-0.027113851
133	0xbd29e388	-0.041476756
134	0xbc4a7a28	-0.012358226
135	0xbbdad131	-0.0066777696
136	0x3db0791d	0.086168505
137	0xbd6d92a0	-0.05800116
138	0x3d0a5651	0.033773724
139	0xbd0813a7	-0.033221867
140	0xbcabd5a8	-0.020975903
141	0x3dbb4ea7	0.09145861
142	0x3d1770a9	0.036972675
143	0xbe0dcc79	-0.13847531
144	0x3d9cc379	0.07654471
145	0xbd1fd570	-0.03902191
146	0x3bb373df	0.0054764594
147	0xbd8bb920	-0.06822419
148	0x3dcce748	0.10005051
149	0xbd807f99	-0.06274337
150	0xbc9e3d8c	-0.019316457
151	0xbd7f7776	-0.062369786
152	0xbe0d5bcf	-0.13804553
153	0x3cc37051	0.023857268
154	0xbb9684b9	-0.0045934585
155	0x3bd6f1e4	0.0065595973
156	0x3dbf187b	0.09330841
157	0x3d93383b	0.071884595
158	0x3d4c8a92	0.04993684
159	0xbaa47510	-0.0012547094
160	0xbd0d3d9e	-0.03448259
161	0x3d3e0fe8	0.046401888
162	0xbdb9c9f6	-0.09071724
163	0xbcc0c280	-0.023530245
164	0x3d903d77	0.070429735
165	0xbdc0e3a1	-0.09418417
166	0xbde61097	-0.11233633
167	0x3d49382b	0.04912583
168	0xbcab30e8	-0.020897344
169	0x3e047696	0.12935862
170	0xbdf2f2e8	-0.11862737
171	0xbd367005	-0.044540424
172	0x3e14686a	0.14492956
173	0xbdd0591a	-0.10173245
174	0x3d30fc61	0.043209437
175	0x3d74cfb2	0.059768386
176	0xbc0fc644	-0.008775298
177	0x3c324a20	0.010881931
178	0xbdb036af	-0.0860418
179	0x3d350716	0.04419621
180	0x3d112431	0.035434905
181	0xbd9ba43d	-0.07599685
182	0xbade430e	-0.001695724
183	0xbd7c75c0	-0.061635733
184	0xbc068a14	-0.008211631
185	0x3c28f118	0.0103113875
186	0xbce7aa04	-0.028279312
187	0x3d6b2f3f	0.057418104
188	0x3daeaa6d	0.085286
189	0x3d123747	0.035697248
190	0x3e0d1318	0.13776815
191	0x3de55c9a	0.11199303
192	0xbc61738b	-0.013760458
193	0x3daa3d1d	0.08312438
194	0x3d80d111	0.06289876
195	0xbd4ed92f	-0.05050009
196	0x3dde28c4	0.10847619
197	0x3cc3c439	0.023897277
198	0xbd50da1b	-0.05098925
199	0x3baeee05	0.0053384327
200	0xbc73c92e	-0.014879508
201	0x3cf8d09f	0.030372916
202	0xbda9472f	-0.0826553
203	0xbcb7cc6b	-0.022436341
204	0xbbbd366a	-0.005774309
205	0xbdc67744	-0.09690717
206	0xbb6a742a	-0.0035774806
207	0xbd58c886	-0.05292561
208	0xbdb3f4cb	-0.08786925
209	0x3b222b9f	0.0024745238
210	0xbd8eaae8	-0.069661915
211	0xbd877486	-0.06614022
212	0xbdb11edd	-0.08648465
213	0xbbc52203	-0.0060160174
214	0x3dd0490e	0.10170184
215	0x3d8efdcf	0.06982004
216	0x3dbe62b8	0.09296173
217	0xbd321912	-0.04348094
218	0xbdd95892	-0.106125966
219	0x3db80c4f	0.08986723
220	0xbd5467f9	-0.05185697
221	0xbcea7dda	-0.028624464
222	0x3dac2a91	0.084065564
223	0x3cacc7bd	0.021091336
224	0x3d8f9d77	0.07012456
225	0xbd62db36	-0.055384837
226	0xbd608d23	-0.0548221
227	0x3db51d1c	0.08843443
228	0xbd887ea6	-0.06664781
229	0x3dea9611	0.11454404
230	0x3cf8445a	0.03030603
231	0xbc81484d	-0.015781546
232	0x3cc14931	0.02359447
233	0x3ddb1bd5	0.10698668
234	0x3c19faba	0.009398157
235	0x3d6727f6	0.056434594
236	0x3c09dc3e	0.008414326
237	0xbde57688	-0.11204249
238	0xbd5ca76d	-0.053870607
239	0x3de531ea	0.11191161
240	0x3ce07ef9	0.027404295
241	0xbcef4a7c	-0.029210322
242	0xbd88ceb8	-0.066800535
243	0x3d8c63cf	0.068549745
244	0x3d5393e9	0.05165473
245	0xbd44912d	-0.047990013
246	0x3d702756	0.058631264
247	0x3d2bb567	0.041921046
248	0xbc4ea5f0	-0.012612805
249	0xbdbbee84	-0.091763526
250	0x3dac5d3c	0.084162205
251	0x3d04cfbd	0.032424677
252	0xbcd7bda4	-0.026335545
253	0xbd5cbe23	-0.053892266
254	0xbc78d9b0	-0.0151886195
255	0xbdb8621d	-0.090030886

lstm.bias_ih_l0 f4 [256]
0	0x3df81eae	0.12115227
1	0x3df416c5	0.119184054
2	0x3c306c16	0.010767957
3	0xbd9c19a2	-0.076220766
4	0x3c840ea8	0.01612027
5	0x3d6efd43	0.058346998
6	0x3de462ff	0.111516945
7	0xbd8f0562	-0.069834486
8	0x3e02c250	0.12769437
9	0x3d0d8440	0.03454995
10	0xbdb37250	-0.08762038
11	0xbce0c30b	-0.027436754
12	0xbdc26327	-0.09491568
13	0x3e1b87df	0.1518855
14	0xbdb98fda	-0.09060641
15	0x3e2fc53d	0.17165084
16	0xbd2aa028	-0.041656643
17	0x3da3c193	0.07995906
18	0x3d6533f0	0.055957735
19	0xbd56fd7b	-0.05248783
20	0x3e10455a	0.14088956
21	0x3dd966c0	0.10615301
22	0x3ba78843	0.005112679
23	0x3db9f409	0.09079749
24	0xbdb73ee3	-0.089475416
25	0x3e076559	0.13222255
26	0x3d8ef0eb	0.06979545
27	0x3dd378b8	0.1032576
28	0xbd2d0acb	-0.04224662
29	0xbd989329	-0.074499436
30	0xbd38fca3	-0.04516281
31	0xbcfcaa89	-0.030843036
32	0xbbdf48f9	-0.006814119
33	0x3de07bb2	0.10961093
34	0x3d4db37e	0.050220005
35	0xbb288780	-0.002571553
36	0x3df8662f	0.12128865
37	0x3d88d1d2	0.06680645
38	0x3dc16a52	0.09444107
39	0x3df28e00	0.118434906
40	0xbd9814ea	-0.07425864
41	0x3dc48fa3	0.09597709
42	0xbd9d903e	-0.07693528
43	0x3da49387	0.08035951
44	0xbc06596f	-0.008200034
45	0xba09cb62	-0.00052564417
46	0xbbac8628	-0.005265016
47	0x3e0f1056	0.13971075
48	0x3d4e7cda	0.050412036
49	0xbd0f8302	-0.03503705
50	0xbdc9e6a4	-0.09858444
51	0x3d31056a	0.043218054
52	0x3b1adb62	0.0023629298
53	0x3dcf48ff	0.10121345
54	0x3d5a7eb3	0.053343486
55	0xbc95a1f6	-0.018265706
56	0xbd98d583	-0.07462599
57	0xbc65e673	-0.014031994
58	0x3c9f8d8d	0.019476676
59	0xbd5315a1	-0.0515343
60	0x3df5bc63	0.119988225
61	0xbd279f4d	-0.040923405
62	0x3db6585b	0.08903571
63	0x3dc7dba2	0.097586885
64	0x3da2c246	0.07947211
65	0x3d91cd0a	0.07119186
66	0xbd852d80	-0.06502819
67	0x3dc39eae	0.0955175
68	0x3d8c1b1e	0.0684111
69	0x3dc1cc52	0.09462799
70	0x3d968cdf	0.07351088
71	0x3d80e24e	0.06293164
72	0xbd92486a	-0.07142718
73	0xbd9aaf63	-0.075529836
74	0xbd6509dc	-0.055917606
75	0x3d9f53cb	0.07779654
76	0x3c808d19	0.01569228
77	0xbc892c99	-0.016744899
78	0x3d14c764	0.036322966
79	0x3dd7e72e	0.10542141
80	0x3e0b6482	0.1361256
81	0xbd664cbe	-0.05622553
82	0x3dd9f54c	0.1064249
83	0xbd5f662c	-0.054540798
84	0xbcc7520a	-0.024331111
85	0x3de4e125	0.111757554
86	0xbd9a401c	-0.07531759
87	0x3d1c80a6	0.038208626
88	0x3db85370	0.090002894
89	0xbd743b1e	-0.05962669
90	0x3d2f8bed	0.042858053
91	0xbcd5a6f7	-0.026080592
92	0xbdd3448f	-0.10315811
93	0x3dfcf4ff	0.12351417
94	0x3cb28a6c	0.02179452
95	0x3def6049	0.11688287
96	0x3c961211	0.018319162
97	0xbc5a02fc	-0.013306376
98	0x3d63ee9a	0.05564747
99	0x3da59d5a	0.08086653
100	0x3e0cdb60	0.1375556
101	0x3bdb582d	0.006693861
102	0x3de1178b	0.109908186
103	0xbdb22f93	-0.0870048
104	0xbd336bae	-0.043803863
105	0x3dc28879	0.09498686
106	0xbd3bb1cf	-0.04582387
107	0x3ba9f56a	0.0051867263
108	0x3d7a52a8	0.061113983
109	0x3dc6f8ca	0.097154215
110	0xbde49b7b	-0.11162468
111	0xbdaa0c9a	-0.08303185
112	0xbafd99de	-0.0019348224
113	0xbbb36058	-0.0054741316
114	0x3dc6c7b1	0.09706057
115	0x3dd7d031	0.10537756
116	0x3d1b7d54	0.03796132
117	0x3c8924b1	0.016741129
118	0x3b1a3636	0.0023530847
119	0x3d1311f9	0.035905812
120	0x3d5d5fa9	0.054046307
121	0x3de82f15	0.11337105
122	0xbb383c51	-0.0028112123
123	0x3d68f3be	0.056873076
124	0xbd8209d4	-0.06349531
125	0x3dd0fde1	0.102046736
126	0x3dd4541c	0.10367605
127	0x3ddf09f5	0.10890571
128	0xbdaf6c13	-0.085655354
129	0x3dc87bd6	0.09789245
130	0xbe05195f	-0.1299796
131	0x3c7af61d	0.015317467
132	0x3e00f47b	0.12593262
133	0xba909584	-0.0011030887
134	0xbc8ce6b0	-0.017199844
135	0x3d8d9b06	0.06914334
136	0xbc988d76	-0.018622141
137	0xbc148bc5	-0.009066527
138	0xbdcefbaf	-0.101065986
139	0xbc9fb6a8	-0.019496277
140	0xbcb0e322	-0.02159268
141	0x3da955db	0.08268329
142	0xbd4fa4bc	-0.050694212
143	0xbdb22c55	-0.08699862
144	0xbd650a8f	-0.055918273
145	0x3de5dfda	0.11224337
146	0x3da0685a	0.078324035
147	0xbe03baea	-0.12864271
148	0xbdd7bb82	-0.10533811
149	0x3db82885	0.089921035
150	0x3c5639a2	0.013075264
151	0xbe11edc2	-0.14250854
152	0x3c844360	0.016145408
153	0xbdf3c882	-0.11903478
154	0xbde6cfe1	-0.112701185
155	0xbd66bfe6	-0.056335352
156	0x3b84855e	0.004044219
157	0x3db12a24	0.08650616
158	0xbda913df	-0.08255743
159	0xbdba443e	-0.090950474
160	0x3d1dd8d3	0.038536858
161	0xbdc470b9	-0.09591813
162	0x3dc11469	0.09427721
163	0x3db9ed65	0.090784825
164	0x3e10a51e	0.14125487
165	0x3ca6a2ea	0.020341355
166	0xbdc49fa4	-0.096007615
167	0xbcc140a9	-0.023590403
168	0x3d4a1cda	0.04934392
169	0xbd0645c2	-0.03278137
170	0xbdd93693	-0.10606112
171	0xbdc1bdd4	-0.09460035
172	0x3e008f77	0.12554727
173	0xbe0b31e7	-0.13593255
174	0xbe082e24	-0.13298851
175	0x3b54ff5c	0.003250084
176	0x3da51438	0.08060497
177	0xbde4aed6	-0.1116616
178	0x3d59629f	0.053072568
179	0x3e14006e	0.14453289
180	0x3d19de03	0.037565242
181	0x3dc9dc61	0.09856487
182	0x3d112b1b	0.0354415
183	0x3d9a2c1f	0.07527947
184	0x3dfd8621	0.12379099
185	0xbe0b7096	-0.13617167
186	0xbdf9d22c	-0.1219829
187	0x3db27738	0.087141454
188	0xbdffb6ba	-0.12486024
189	0xbcad1d9b	-0.021132281
190	0xbcddf3b9	-0.027093755
191	0x3db17b8e	0.08666144
192	0xbd4bc28c	-0.04974608
193	0xbd1ce3e7	-0.038303282
194	0xbd82a020	-0.06378198
195	0x3c89444e	0.016756203
196	0x3d6b9d9c	0.057523355
197	0xbd907a89	-0.07054622
198	0x3daecdd7	0.085353546
199	0x3d7bb3c5	0.06145074
200	0x3d77ef6d	0.06053107
201	0xbbe3804f	-0.006942786
202	0x3db0b26b	0.086277805
203	0xbc5ee634	-0.013604689
204	0xbd549c90	-0.051907122
205	0x3df74b66	0.12074928
206	0x3d917c18	0.07103747
207	0x3db5e123	0.08880832
208	0xbd0fe7e1	-0.035133246
209	0x3d492f65	0.049117465
210	0x3dbfc27a	0.09363265
211	0x3d1c5fa9	0.038177166
212	0x3a1f7665	0.0006083011
213	0x3d1a6290	0.037691653
214	0xbdffbed0	-0.124875665
215	0x3c3cbc00	0.011519432
216	0xbdce0472	-0.100594416
217	0xbd692148	-0.056916505
218	0x3d275fe6	0.04086294
219	0xba8e9888	-0.0010879198
220	0xbd52cb41	-0.05146337
221	0xbd58a601	-0.05289269
222	0xba84799f	-0.0010107047
223	0xbc342525	-0.010995184
224	0x3da85ec6	0.082212016
225	0x3daa410b	0.08313187
226	0xbd617ff8	-0.05505368
227	0xbda4df94	-0.08050457
228	0xbdc65dd7	-0.09685867
229	0x3dc3e4b1	0.09565104
230	0x3d29995d	0.041406024
231	0x3da166ba	0.07880922
232	0xbd9444c1	-0.07239676
233	0xbcbb1f8e	-0.022842195
234	0x3c3b131c	0.01141813
235	0xbdf6b118	-0.12045497
236	0x3d59fa64	0.053217307
237	0xbdafc15c	-0.08581802
238	0x3dc41510	0.0957433
239	0x3d3b1753	0.04567654
240	0x3dab174c	0.08354053
241	0xbdce3ffc	-0.10070798
242	0xbcb636eb	-0.022242984
243	0xbcd854ea	-0.026407678
244	0xbdacebb3	-0.084433936
245	0x3de2ba45	0.11070684
246	0x3dae88e0	0.085222006
247	0x3e20b083	0.15692334
248	0xbd922262	-0.07135464
249	0x3d489e4c	0.04897909
250	0xbd9e232e	-0.07721554
251	0xbce2de66	-0.027693938
252	0x3d9d0994	0.076678425
253	0x3c11eb07	0.008906133
254	0x3e04b6b4	0.1296032
255	0xbdab316a	-0.08359034

lstm.bias_hh_l0 f4 [256]
0	0x3c32a7c7	0.010904259
1	0x3db8daf7	0.09026139
2	0xbc20a987	-0.0098060435
3	0x3dde4b38	0.108541906
4	0xbd0c596f	-0.034264978
5	0x3c34eafa	0.011042351
6	0x3df1dab1	0.1180929
7	0xbc3af432	-0.01141076
8	0x3d9cfc4c	0.07665309
9	0x3d5f52c3	0.054522287
10	0x3dce9a64	0.100880414
11	0x3d00da04	0.031457916
12	0xbdac2a3f	-0.08406495
13	0xbb93f487	-0.004515234
14	0xbd1fad30	-0.038983524
15	0xbb916279	-0.0044367877
16	0xbcce85c0	-0.025210261
17	0xbdd99487	-0.106240325
18	0x3c729784	0.014806632
19	0x3d6345dd	0.05548655
20	0xbd49cee9	-0.04926959
21	0xbc33375c	-0.010938492
22	0x3d76d478	0.06026122
23	0xbacff001	-0.0015864373
24	0x3dfb0bc0	0.122581005
25	0x3d97f366	0.074194714
26	0x3d2f37e1	0.0427779
27	0x3d19604f	0.037445363
28	0x3dff2a30	0.124592185
29	0x3c6c517b	0.014423723
30	0x3dc04528	0.093881905
31	0x3cb5a055	0.022171179
32	0x3e24b021	0.16082813
33	0x3d315c8a	0.043301143
34	0xbd29f628	-0.04149452
35	0x3da1b6ef	0.0789622
36	0x3e034ddc	0.1282267
37	0xbd959f9f	-0.07305836
38	0xbd90b5db	-0.07065936
39	0x3de4d1a3	0.111727975
40	0x3cd89683	0.026438957
41	0x3c91d2be	0.017800685
42	0x3dbb3e44	0.091427356
43	0xbdcdccbb	-0.10048815
44	0x3c143af2	0.009047257
45	0x3bcc17f2	0.0062284404
46	0xbcebea4f	-0.02879825
47	0x3df849cc	0.12123451
48	0x3d676cd5	0.056500275
49	0xbcfdbd50	-0.03097406
50	0xbddc26df	-0.107496016
51	0x3db24a05	0.08705524
52	0x3dce4507	0.1007176
53	0x3dba98f6	0.09111206
54	0xbd283878	-0.041069478
55	0x3d9241c3	0.07141449
56	0x3dd8567f	0.10563373
57	0x3e03b4a9	0.12861885
58	0x3e0d21e9	0.13782467
59	0x3cf80fc7	0.03028096
60	0x3db02969	0.08601648
61	0x3c30519c	0.010761645
62	0x3c57ed61	0.013179154
63	0x3df76312	0.12079443
64	0x3da40459	0.08008642
65	0x3ad83225	0.0016494436
66	0xbc0e17e9	-0.008672693
67	0x3dd317f7	0.10307305
68	0xbd9339d5	-0.07188765
69	0xbb915dcb	-0.00443623
70	0x3d0dccf8	0.0346193
71	0x3ddcdacf	0.10783922
72	0x3b232997	0.0024896616
73	0x3d674583	0.056462776
74	0x3d151778	0.036399335
75	0x3d86ad97	0.065760784
76	0x3d303156	0.0430158
77	0x3d8cfbf5	0.068839945
78	0xbdd3238b	-0.10309514
79	0xbd293910	-0.041314185
80	0xbd176a9e	-0.036966912
81	0x3d7042d4	0.058657482
82	0x3dc63842	0.09678699
83	0xbd6cda3f	-0.057825323
84	0xbcaf493b	-0.021397224
85	0x3d918e0d	0.07107172
86	0x3da950dc	0.08267376
87	0xbda36f2f	-0.07980191
88	0x3c57e855	0.013177951
89	0x3c96a963	0.018391317
90	0x3b87da02	0.0041458616
91	0xbc0d40db	-0.00862142
92	0xbc83e50c	-0.016100429
93	0xbc8fe0ed	-0.017563308
94	0xbd4305b7	-0.047612872
95	0x3d6b310d	0.057419825
96	0xbda4d836	-0.080490515
97	0x3de2586e	0.11052023
98	0xbce49d15	-0.027906934
99	0x3dbe4a14	0.09291473
100	0x3dc1ab0c	0.09456453
101	0x3bad209b	0.005283428
102	0x3d42f3dd	0.047595847
103	0x3d43f174	0.04783769
104	0xbd83fcdd	-0.06444714
105	0xbd7c0168	-0.06152478
106	0xbd6afd46	-0.057370447
107	0xbd15ae3d	-0.03654312
108	0xbd8315b3	-0.06400623
109	0x3e05457a	0.13014784
110	0xbd9aa76e	-0.07551466
111	0xbd45b36a	-0.048266806
112	0xbda75910	-0.08171284
113	0x3dee2508	0.11628157
114	0xbdd70fd6	-0.10501067
115	0x3e173f70	0.14770293
116	0x3c21711f	0.00985363
117	0xbcff7ee0	-0.031188428
118	0xbdd17a1a	-0.10228367
119	0xbdabc556	-0.08387248
120	0x3dd7fb9a	0.10546036
121	0xbd330c69	-0.043713007
122	0x3c059319	0.008152747
123	0xbd428121	-0.04748643
124	0x3d7b9afa	0.061427094
125	0x3c2f80f3	0.010711896
126	0xbd3ea860	-0.046547294
127	0x3d0d4f99	0.03449974
128	0x3dac6dde	0.08419393
129	0x3dc77cb6	0.097405836
130	0xbd683389	-0.056689773
131	0xbdd39274	-0.10330668
132	0x3d963474	0.073342234
133	0xbd5c13b0	-0.053729713
134	0x3d643394	0.05571325
135	0xbd92f588	-0.071757376
136	0x3d266696	0.040625177
137	0x3cf6b69c	0.030116372
138	0x3b9fb585	0.0048739337
139	0x3c972f29	0.018455105
140	0x3d271fc4	0.04080178
141	0x3dd0a6e1	0.101880796
142	0x3df08eb5	0.11745969
143	0x3d332271	0.043734018
144	0x3d2310ca	0.039810933
145	0xbdef0842	-0.11671497
146	0xbd088056	-0.033325516
147	0xbdefc4c4	-0.11707452
148	0x3e00df8a	0.12585273
149	0xbcdd5bd6	-0.02702133
150	0xbd90d9fb	-0.070728265
151	0xbdcdca5d	-0.10048363
152	0xbdee36ef	-0.116315715
153	0xbd425f4e	-0.04745417
154	0xbc3679c3	-0.011137429
155	0xbbe8a45e	-0.007099672
156	0xbc76407f	-0.0150300255
157	0x3e01ed80	0.12688255
158	0x3c82f317	0.015985055
159	0xbdfb2f7a	-0.12264915
160	0x3d942a7c	0.07234666
161	0xbc435a71	-0.011923418
162	0x3b5865fc	0.0033019772
163	0x3d822777	0.063551836
164	0x3ccdc46a	0.025118072
165	0x3dcfa40e	0.10138713
166	0x3dc4a238	0.09601253
167	0x3dab245b	0.08356544
168	0x3e00d78b	0.12582223
169	0xbd306b06	-0.043070816
170	0xbd971d46	-0.0737863
171	0x3cfdf035	0.030998329
172	0x3d830493	0.06397357
173	0xbdf950c1	-0.12173606
174	0x3d834e17	0.06411379
175	0x3dbb6e6d	0.091519214
176	0x3acaabf0	0.0015462618
177	0x3dd231e4	0.10263422
178	0x3d6042c0	0.054751158
179	0x3d928857	0.07154911
180	0xbdd0ef67	-0.102019124
181	0xbd82236b	-0.06354412
182	0xbd2e36ea	-0.04253284
183	0x3d47434d	0.048648167
184	0x3ced7a01	0.02898884
185	0x3da9b647	0.0828672
186	0x3bc2eef2	0.0059488947
187	0xbd30fb8c	-0.043208644
188	0xbd947169	-0.07248194
189	0x3e086cd2	0.13322762
190	0x3dbc516e	0.09195219
191	0x3ca4c3cb	0.020112893
192	0x3deab9dc	0.11461231
193	0xbdb05c16	-0.08611314
194	0x3ce0e73e	0.027454015
195	0x3db4e93b	0.08833548
196	0xbdcaf01a	-0.09909077
197	0xbd4a8d4b	-0.049451154
198	0xbc80794c	-0.015682839
199	0xbd2a0697	-0.04151019
200	0x3e140682	0.14455608
201	0x3cdb0967	0.026737882
202	0xbdba686a	-0.09101947
203	0x3dd0c264	0.10193327
204	0x3ca74225	0.020417282
205	0x3dc99c8a	0.098443106
206	0xbda6b3e2	-0.08139779
207	0xbd133372	-0.035937734
208	0xbd3da79f	-0.046302434
209	0x3d3553b2	0.04426927
210	0xbdd00151	-0.10156501
211	0x3ddcace4	0.10775164
212	0xbda1895c	-0.07887527
213	0x3d38840a	0.045047797
214	0xbe05211b	-0.1300091
215	0x3d036788	0.032081157
216	0x3e0ba157	0.13635765
217	0x3ce7d49c	0.028299622
218	0x3cf921b4	0.030411579
219	0x3da99e4e	0.08282147
220	0x3df68955	0.12037913
221	0xbda1fa9a	-0.079091266
222	0xbd8a6cdb	-0.06759044
223	0x3d57e9db	0.052713256
224	0x3e0d883c	0.138215
225	0x3e0f9bca	0.14024273
226	0x3dc7754f	0.09739172
227	0x3b5637d0	0.0032687075
228	0x3de7a9ab	0.113116585
229	0xbd858c89	-0.065209456
230	0xbccf849d	-0.02533179
231	0x3d8a6db0	0.067592025
232	0x3dd2e560	0.10297656
233	0xbd81535e	-0.06314729
234	0x3d9eda2e	0.07756458
235	0xbb9212dd	-0.004457815
236	0xbdb08dca	-0.08620794
237	0x3ce0119b	0.027352145
238	0x3b7808c1	0.0037847015
239	0xbdb987bb	-0.09059092
240	0x3d10de5a	0.0353683
241	0x3c9dc39e	0.019258317
242	0x3da298f1	0.079393275
243	0x3db93b9f	0.09044575
244	0x3de0f8ec	0.10984978
245	0x3d9ed84c	0.07756099
246	0xbdc1f4df	-0.094705336
247	0x3e0efca0	0.13963556
248	0xbdb21631	-0.08695639
249	0xbd730f3c	-0.0593407
250	0x3d232bf1	0.039836828
251	0x3c95b4c2	0.018274669
252	0x3c9cd5b4	0.01914487
253	0xbdb2573c	-0.08708045
254	0xbd9ca0f2	-0.076478854
255	0x3bb8dc1f	0.005641475

dense.weight f4 [4, 64]
0	0xbe13aa9c	-0.14420551
1	0x3d60285f	0.054726
2	0x3d65f8bd	0.05614542
3	0xbda9f171	-0.082980044
4	0xbc8988ef	-0.016788928
5	0x3de1c69e	0.11024211
6	0xbe0ed6c2	-0.13949111
7	0xbd4a7121	-0.049424294
8	0xbe1787ed	-0.14797945
9	0xbd956219	-0.07294101
10	0xbcc93f00	-0.024566174
11	0x3d19bc5f	0.03753316
12	0x3c9bd322	0.019021574
13	0x3e0c6412	0.13710049
14	0x3d821707	0.06352048
15	0xbe2cfa25	-0.16892298
16	0xbca983ce	-0.020692732
17	0xbdc570dc	-0.09640667
18	0xbaede4bf	-0.0018149837
19	0xbe10cb2d	-0.14140005
20	0xba63872a	-0.0008679504
21	0x3db659ae	0.08903824
22	0x3d3636a6	0.04448571
23	0xbdafba28	-0.08580428
24	0xbda5744f	-0.08078825
25	0x3b54a292	0.0032445532
26	0x3d9073d8	0.070533454
27	0xbe06a6d2	-0.13149574
28	0xbdca155e	-0.09867357
29	0x3c5b857d	0.013398525
30	0xbda8554f	-0.08219396
31	0x3c8a7254	0.016900219
32	0x3d4f5c3c	0.05062507
33	0xbcd81500	-0.026377201
34	0x3e0321cb	0.1280586
35	0x3c5c502b	0.013446848
36	0xbde0cee2	-0.1097696
37	0xbd9b937a	-0.07596488
38	0x3d48dcba	0.049038626
39	0x3c24f0dd	0.010067192
40	0xbc860fcf	-0.01636496
41	0xbd6f10db	-0.058365684
42	0xbde32d8b	-0.11092671
43	0xbdace202	-0.08441545
44	0xbdb70cf7	-0.0893802
45	0x3ad63015	0.0016341234
46	0x3d76a45c	0.06021534
47	0xbce426d8	-0.027850553
48	0xbd9a5c7f	-0.075371735
49	0xbe11a604	-0.14223486
50	0x3da5f554	0.08103433
51	0xbbb656f3	-0.0055645644
52	0xbd99a23a	-0.075016454
53	0x3e1d20b2	0.15344504
54	0x3c8d6fd1	0.017265232
55	0xbd073d3d	-0.033017386
56	0x3d171cd6	0.036892734
57	0xbdc9504c	-0.098297685
58	0xbd637eab	-0.055540722
59	0x3da3a824	0.07991055
60	0xbcc582b7	-0.024110181
61	0x3daae3d2	0.083442345
62	0x3dc945c5	0.098277606
63	0xbd3c6331	-0.045993034
64	0xbd8b5e09	-0.06805045
65	0x3d1f018f	0.038819846
66	0xbd6b5ff9	-0.057464574
67	0xbc88b4df	-0.016687809
68	0xbd7dadac	-0.061933205
69	0xbce2ab24	-0.027669497
70	0xbdb574c6	-0.088601634
71	0x3de9e762	0.11421086
72	0x3cc0b3aa	0.02352317
73	0x3d69cbbb	0.05707906
74	0x3d72ef80	0.059310436
75	0x3de89f7f	0.113585465
76	0xbdddd2ce	-0.108312234
77	0xbcd92cd9	-0.026510643
78	0xbdc19d5c	-0.09453842
79	0xbdcf44c1	-0.10120536
80	0x3de5989c	0.112107486
81	0x3ce4fcbd	0.027952546
82	0x3da9d64e	0.082928285
83	0x3c0184c1	0.007905186
84	0x3e2fce6e	0.1716859
85	0x3daa10f6	0.08304016
86	0x3cb80822	0.022464816
87	0x3dbec49c	0.09314844
88	0xbd948588	-0.072520316
89	0xbde31b5b	-0.11089202
90	0x3d439216	0.04774674
91	0xbe0e8b1c	-0.13920254
92	0x3b98293b	0.004643587
93	0x3d72b741	0.059256796
94	0x3dc544b3	0.09632244
95	0x3dbf7c6c	0.093499035
96	0x3d87f1f9	0.066379495
97	0x3dac9066	0.08425979
98	0x3b75ae5f	0.0037487966
99	0xbcafb638	-0.021449193
100	0x3d697ae1	0.057001952
101	0xbd1c5603	-0.038167965
102	0xbdc9a9d9	-0.09846849
103	0xbd263b6e	-0.04058402
104	0x3dacfd5e	0.084467635
105	0x3d9f2afe	0.07771872
106	0x3d8b7acd	0.06810532
107	0xbcba5aa7	-0.022748305
108	0x3d5feccc	0.054669186
109	0xbd5c11c2	-0.053727873
110	0x3da05804	0.07829288
111	0x3decacbe	0.115563855
112	0x3da4eaf0	0.08052623
113	0x3c8dfb09	0.017331617
114	0x3d9dcc8a	0.07705028
115	0xbd2ec545	-0.0426686
116	0xbd594392	-0.053042956
117	0xbd34bfe6	-0.04412832
118	0x3d175fb8	0.03695652
119	0xbe17d4bd	-0.14827247
120	0x3dfa5fce	0.122253045
121	0x3d53e08f	0.051727828
122	0xbe03a9e0	-0.12857771
123	0x3d6d3860	0.05791509
124	0xbd2c9a18	-0.042139143
125	0x3e09c928	0.13455641
126	0x3da894ee	0.08231531
127	0x3d03e2eb	0.032198828
128	0xbd4fd530	-0.05074042
129	0x3d2bcb90	0.04194218
130	0x3dbad948	0.09123474
131	0xbdc96fdd	-0.09835789
132	0xbdb37b49	-0.08763749
133	0xbde93280	-0.11386585
134	0xbcff1648	-0.031138554
135	0x3e02606f	0.12732099
136	0xbdbc382d	-0.09190402
137	0xbd35591e	-0.044274442
138	0x3d93963b	0.072063886
139	0x3d8822ca	0.066472605
140	0xbd518452	-0.05115158
141	0x3dc1411f	0.09436249
142	0xbdd0441a	-0.10169239
143	0xbe38f427	-0.18061887
144	0x3e160014	0.14648467
145	0xbd4a285d	-0.0493549
146	0x3dda41d2	0.106570855
147	0x3d1d4e8c	0.038404986
148	0xbd15603e	-0.036468737
149	0xbd98aece	-0.07455216
150	0x3dc5eb47	0.09664016
151	0xbdfdde10	-0.12395871
152	0xbe12533f	-0.14289568
153	0x3db6cba0	0.08925557
154	0x3d6787cc	0.05652599
155	0xbc7c1808	-0.015386589
156	0xbdae9a48	-0.085255206
157	0xbb8499fd	-0.004046677
158	0xbdee2cc0	-0.11629629
159	0xbdb7883e	-0.08961533
160	0xbdc8096f	-0.09767424
161	0xbe0ca1e4	-0.13733631
162	0x3d9e02b5	0.0771536
163	0xbdccae56	-0.099941894
164	0x3b8fb264	0.0043852795
165	0x3ddced77	0.1078748
166	0xbd85967a	-0.06522842
167	0xbe0d1953	-0.13779192
168	0xbd92b74b	-0.071638666
169	0x3dd9a6a3	0.106274866
170	0x3d2b8d7c	0.041882977
171	0x3d9d4648	0.07679421
172	0xbd8f30aa	-0.06991704
173	0xbdbd18d4	-0.09233251
174	0x3ca2dd63	0.019880956
175	0xbd7a7775	-0.06114908
176	0xbd6151b5	-0.055009563
177	0xbc9b01cc	-0.018921755
178	0xbdd39641	-0.10331393
179	0xbde2190e	-0.11039935
180	0xbded7320	-0.11594224
181	0x3dcfd92a	0.10148843
182	0xbdadcc2f	-0.084862106
183	0x3e168fb9	0.14703263
184	0xbd8f563f	-0.06998872
185	0xbe2e119d	-0.16998906
186	0x3d9c633d	0.07636116
187	0x3d1ac52c	0.037785694
188	0xbd9f6780	-0.07783413
189	0xbcbf7410	-0.023370773
190	0x3d7cfb6a	0.061763205
191	0x3db941b2	0.090457335
192	0xbdb93f24	-0.09045246
193	0xbd7db19c	-0.06193696
194	0xbdecaea6	-0.11556749
195	0x3c014b3b	0.0078914715
196	0x3db3f867	0.08787613
197	0xbdefe55b	-0.11713668
198	0x3e16c725	0.14724405
199	0xbda3363f	-0.07969331
200	0x3d4f971f	0.05068123
201	0xbdb8b83a	-0.090195134
202	0x3ddcc0aa	0.10778935
203	0x3c274cb0	0.010211155
204	0xbd729da0	-0.059232354
205	0xbd37a38a	-0.044833697
206	0xbd7bf6d6	-0.061514698
207	0x3d9507c2	0.0727687
208	0xbdea29e2	-0.1143377
209	0x3c2fe354	0.010735352
210	0x3e1068dd	0.14102502
211	0x3d528319	0.051394556
212	0x3cbe90ee	0.023262467
213	0x3da84612	0.0821649
214	0xbbb05414	-0.0053811166
215	0x3d5aefc9	0.053451333
216	0xbda4f8d6	-0.08055274
217	0x3db923d6	0.09040038
218	0xbdf62b36	-0.120199606
219	0xbde778e5	-0.11302356
220	0xbdddb6fd	-0.10825918
221	0x3df23cc6	0.11827998
222	0x3dd9c967	0.106341176
223	0xbd661295	-0.056170065
224	0x3bb288d0	0.005448438
225	0xbe122da3	-0.14275222
226	0x3d9b78d7	0.07591408
227	0x3ba285b2	0.0049597854
228	0x3e013d23	0.12620978
229	0x3d6c9f96	0.05776938
230	0xbdadd120	-0.08487153
231	0xbda3731e	-0.07980941
232	0x3e048094	0.12939674
233	0x3d3fad60	0.046796203
234	0xbc80bee8	-0.015716031
235	0x3ced1a42	0.028943185
236	0x3c6df4c2	0.014523687
237	0xbdb60193	-0.08887019
238	0xbe0a1a0c	-0.13486499
239	0x3dd3ff32	0.10351409
240	0xbdaedcb9	-0.08538193
241	0x3d6d45dd	0.057927955
242	0x3d0833d8	0.033252567
243	0x3daa0e3d	0.08303497
244	0x3cf89a20	0.03034693
245	0xbd3fee64	-0.046858206
246	0x3d21a6a4	0.03946556
247	0x3cd5d80f	0.026104001
248	0xbd1961ed	-0.037446905
249	0xbe19e947	-0.15030394
250	0xbc48ab1e	-0.012247829
251	0x3c817c47	0.01580633
252	0xbdb30d1d	-0.087427355
253	0xbd241c6c	-0.040066168
254	0x3d93ae05	0.07210926
255	0xbd2af593	-0.041738104

dense.bias f4 [4]
0	0x3db42f0c	0.08798036
1	0x3c018677	0.007905594
2	0x3dd7f458	0.10544652
3	0xbdd70b7b	-0.105002366
